models/cnn_torch.pth (torch, 84572 bytes, 6 tensors)

conv1.weight f4 [16, 1, 3, 3]
00000000: 5f9e b23e 2bd3 9d3e 62c7 b7be fe1f a63e
00000010: 5814 23bd 7d22 75bd cf2d 59be e4cc 3b3e
00000020: 6f92 b03e e21e 0dbf b08d 923e 8568 813d
00000030: 74ff 123e f122 253e a21f 993e 412b 94bd
00000040: b5d2 863e ab97 ddbd 4440 61bb d4ae 31bf
00000050: 4a80 3bbf e023 41bf fb65 21bf dd96 f83e
00000060: 8487 68bf dcbc 613e d1f3 ef3e dbff 1cbf
00000070: 33f5 f5be 37b7 3dbf d02b 013e 96ca 9ebe
00000080: 988d 2a3e fd27 833e 2d66 7f3e eddf cf3e
00000090: 12b7 05be 69e9 943e 68dd 34be c2ba 78be
000000a0: e14f 113e 60e6 8cbd 77be a23c c535 a43e
000000b0: 7597 263e a722 5cbe 0630 313e a842 903d
000000c0: ff4d 473e dca2 7fbe 72bb ddbe 6e51 b9be
000000d0: 9f32 17bf df5b 323e 85d7 bc3d 74e7 ab3e
000000e0: 26a0 b33e ca04 b33e a1f7 bf3e 8d2f 01bf
000000f0: 77bc c9bd 046a f8be 8632 97be a60e 8e3c
00000100: 9cc2 ca3b 8a2e dabe eca8 013f bf03 cf3d
00000110: 332c 15be 5451 dabd 50e6 033f 118c d83e
00000120: e056 a23e 2c35 50bf b853 46bf 902a 45bb
00000130: 4384 65be 0755 633e 1ca3 0d3f e6a1 2b3f
00000140: 5df7 843e f690 8abe 2e01 073e 4201 5dbe
00000150: cb3e 1a3e 9607 f3bd c321 153e 00a4 3bbe
00000160: 5321 40be e72c a63d 1756 b03e 660c 7cbd
00000170: b7d0 f2be 593c 033f 1d0a 94be d2ba 74bf
00000180: de06 1e3f 553d 64be 605e 14bf db22 a5be
00000190: b078 43be 5c88 aa3d f836 34bd e3c4 77be
000001a0: e01a 003c 9328 69be 04cb 90be a3f5 3bbe
000001b0: 6a58 1c3e c7a5 103f 6c38 513f 69df 16bf
000001c0: e471 5b3e aaf8 bdbe 1626 83bf bd84 65bf
000001d0: b5c6 05bf fc33 27bf cc60 173e f61e 663e
000001e0: 3bad 37bf 002e 35bf 6337 e4be 9c16 383e
000001f0: 4252 3ebe 45a5 1abf c601 0bbf 4aa6 c8be
00000200: e861 eb3e f5e2 ddbe dc39 9d3e 2454 af3e
00000210: b741 55be 8294 9b3e 18b1 54bc 8bd7 02be
00000220: 56aa 8dbe 8bab a9be 7451 c33d a1e7 07be
00000230: f3e8 8e3d 73a2 a9be 5bfc 3f3e 5ef0 9bbe
0.34886453 0.3082517 -0.35894305 0.32446283 -0.039814323 -0.059847344 -0.21208881 0.18339878
0.3448672 -0.5512525 0.28623724 0.06318764 0.1435526 0.1612661 0.29906946 -0.072348125
0.26332632 -0.10819944 -0.003437058 -0.6940739 -0.7324263 -0.75445366 -0.63046235 0.485526
-0.9083178 0.220447 0.46865705 -0.61327904 -0.48038635 -0.7410769 0.1261437 -0.31013936
0.16655576 0.25616446 0.2494132 0.4060053 -0.13058117 0.29084328 -0.17662585 -0.24289992
0.14190628 -0.06879878 0.019866211 0.32072273 0.16268714 -0.21497594 0.17303476 0.07043964
0.19463347 -0.2496447 -0.43307072 -0.36194938 -0.59061617 0.17417859 0.092207946 0.33575022
0.3508312 0.3496459 0.37493613 -0.5046318 -0.098504 -0.48518384 -0.29530734 0.01734097
0.00618775 -0.4261363 0.5064838 0.101081364 -0.14567642 -0.10660043 0.51523304 0.42294362
0.31706905 -0.81331134 -0.77471495 -0.0030085184 -0.22413735 0.22200404 0.5532701 0.6704391
0.25969973 -0.2706372 0.13184044 -0.21582511 0.15063016 -0.11866681 0.1456366 -0.1832428
-0.18762712 0.08114033 0.3444068 -0.06153526 -0.47424862 0.5126396 -0.28913966 -0.95597565
0.6172923 -0.22289021 -0.57956505 -0.32253155 -0.19089007 0.0832679 -0.043997735 -0.241962
0.0078189075 -0.22769384 -0.2827989 -0.18355422 0.15268102 0.56502956 0.8172672 -0.58934647
0.21430165 -0.37103778 -1.0245998 -0.8965567 -0.5225633 -0.65313697 0.14783019 0.22472748
-0.71748704 -0.70773315 -0.44573507 0.17977375 -0.18586066 -0.6040843 -0.5429958 -0.39189368
0.45973134 -0.43337217 0.30708206 0.34243882 -0.2082585 0.3038674 -0.012981676 -0.12777536
-0.27669019 -0.3313869 0.0953702 -0.13271953 0.06978025 -0.3313175 0.1874861 -0.30456823

conv1.bias f4 [16]
00000000: f24c d9bd 33d1 e4bd 72ec 2e3e 8bc8 7c3d
00000010: 2b27 d7bd ca22 abbe 827d 5bbc 950e c6be
00000020: 4505 22be f47a 96be 3196 9abd 9385 7abe
00000030: 0bcb 033e ed9a 733e 1258 3ebd 9cfa 75be
-0.10610379 -0.11172714 0.17082384 0.06171469 -0.105055176 -0.3342498 -0.013396623 -0.38683
-0.15822323 -0.2939068 -0.07548178 -0.24465017 0.12870423 0.23789568 -0.04647071 -0.24021381

conv2.weight f4 [32, 16, 3, 3]
00000000: 1709 0b3e 9ef5 2abd c80f 4abd 51b1 08be
00000010: 905b cdbc 2292 94bd 972c c9bd a3d6 3c3c
00000020: ece0 29bd 5d67 d9bd 0f5e d1bd e321 83bd
00000030: bf84 5dbc f496 a6bd 805b dcbd 916e b5bd
00000040: 807d fabd 4f80 f8bc c617 923b f7d1 0dbe
00000050: 668f 26bd af2b 8bbc f303 38bd efc2 b7bd
00000060: ec68 87bc f685 d43d aec7 ba3d 8bf8 98bd
00000070: fe2c a8bd 256d 51bd 751f 99bd 0ad6 adbd
00000080: 505b debb 0978 3d3c 32e2 8bbd 9933 a1bd
00000090: d2fe 70bd 802d 85bd 4de8 23bd 1352 16bd
000000a0: 56ff 0abe 7af8 b9bd 01dd 253c 2f06 e2bc
000000b0: b77a 83bd b6ca 4dbd 58d4 50bd a7e0 98bd
000000c0: 1086 debc 148a e63c 3aa4 593d ba97 1d3d
000000d0: 1bdc 96bd db43 4dbd f8dd 95bd 6277 a83c
000000e0: 6897 44bd 5b2d a7bd f57c d1bc d1fb bbbd
000000f0: ae6e e9bd ffe9 4b3a ee94 c8bd ce5a 97bd
00000100: aac7 a9bd 85fb 7ebb 914d 813d fc54 f1bc
00000110: c2df f73a c3b0 11be b6c6 02be e5a4 093b
00000120: 98e7 cc3d 8360 253c 7af7 84bc 5ddc a53d
00000130: 4d38 79bd acbc fcbd 1d9a 06be 3a4e 0dbe
00000140: 1b75 d4bc 7095 27bd 7063 89bc ac80 413c
00000150: c0cb 78bc 083e 70bd 5608 5fbd ac72 e23c
00000160: d6e2 cabc 46b8 523d 9eb0 b1bd a42e f8bd
00000170: ae18 99bd 21b6 cdbd d532 afbd 29bb 0ebe
00000180: 1402 5cbc 5cca f1bd 54d4 94bc 46e4 1a3d
00000190: 16dc 733d 04e9 82bd 627c 753d ab5d 21bd
000001a0: 0c51 fd3c 8d46 a03d 388e 40bc 80f0 28ba
000001b0: 0646 a2bd 30be 04be b3f5 a3bc 1c32 12be
000001c0: 8a2e 08bc 3cca 163b 4ebd 993c a439 a3bd
000001d0: 7674 0abc 702f 29bd c772 64bc b8cb bdbc
000001e0: 209f a1bd 493c e1bd 2ae8 89bd bfea cebd
000001f0: cfcc d43c 684e 093d f294 0ebe 9869 083c
00000200: baf6 043e 90bf 95bd fd67 8ebd 91a2 c0bd
00000210: 698a 0abe 9d88 10be c23c eebc 6368 3bbd
00000220: 736f 5bbd 300e d5bb ec55 e3bc 5cdb dcbc
00000230: a07a 2f3b 54cd 90bc f60c ebbc b36e 23bd
00000240: b6ad 18be 3009 b43d ea6f aebd c6f2 a3bc
00000250: e7b0 043e 40cf 10bc 7527 433e 7004 373c
00000260: 05b0 d8be da3e 123c 0d21 563e 8f46 0fbe
00000270: fa03 903e 0b0f 803e 6ace f1be 2713 4a3e
00000280: 9ebf 73be 7daf 09bf 85bb 163f e216 1f3e
00000290: da5e 96bd 5a6a a63e 2ec6 72be 5f4a 273d
000002a0: 426c 01bd f43f bd3b 5fb1 3f3e 240d c13e
000002b0: 65f6 1abd b7da 92be a64b 773e 492c 0ebe
000002c0: 7b9a c0bd 9cc3 28be ab6b 97be a78f 7fbe
000002d0: 6f15 dd3c d80a 053e bd21 1cbe 9e88 e73c
000002e0: 736b 5ebd 4521 8ebe 83e3 0e3e 71f6 7ebe
000002f0: d9b8 cbbe 72f0 6c3d 743a 03be 2b4f e9bd
00000300: 8c0c 47bd 13ff 68bd 92bb 35be 904b 5ebe
00000310: bc11 9cbd 8e03 50be d146 76be 66a2 063e
00000320: 3891 7e3d e25f 103e 95a0 613e 24e5 36bc
00000330: 812f a93e f952 ec3d 4baa 5fbe c653 78be
00000340: 4808 dfbc 6701 1dbe 2c8a 05bd 425f eb3c
00000350: 0abd a3bd 22b4 d13a f80a a9be e7e4 f0be
00000360: a9af 22be 0312 76be 7568 6bbe ecb1 67be
00000370: bd5c 7abe 30dd 1b3c 69a7 44be f41d 36be
00000380: 219a 92be 75b5 fd3d b36a 91bd 1b60 02bd
00000390: a71b cd3d 2cbb 94bc f4bd 8bbc 96c0 93bd
000003a0: 7e48 6b3d d26c 273d 24fb 06bf ceb9 a33d
000003b0: 9b27 bc3e 948a 22bc ac13 473e ea28 a03e
000003c0: c948 473e 5f66 5abd 1b07 913d 0068 763b
000003d0: 3001 a8bc d28d 9abd 7a78 a0bd 9829 23bd
000003e0: ce81 2dbd f0af d43c 4cbb c6bc 8389 05bd
000003f0: e1da ce3d 9c36 b5be 439d 5cbe 6452 9cbe
0.13577686 -0.041738145 -0.049331456 -0.13348891 -0.025068074 -0.07254435 -0.09822958 0.011525783
-0.041474268 -0.10615418 -0.102230184 -0.06402948 -0.013520419 -0.08134261 -0.1075964 -0.088589795
-0.122309685 -0.03033462 0.0044584004 -0.13849626 -0.0406641 -0.016988603 -0.04492564 -0.089727275
-0.016529523 0.103771135 0.09120117 -0.07469281 -0.082117066 -0.05112948 -0.07476703 -0.0848809
-0.0067857876 0.011564263 -0.06830253 -0.078711696 -0.058836766 -0.06502819 -0.04001646 -0.036699366
-0.13573965 -0.09080596 0.010123492 -0.02759084 -0.064198904 -0.05024215 -0.050983757 -0.07464724
-0.027163535 0.028142013 0.053135134 0.038474776 -0.073662005 -0.05011354 -0.07317728 0.020564739
-0.047995955 -0.08162948 -0.02557228 -0.091788895 -0.113980636 0.00077787036 -0.09794031 -0.073903665
-0.08290036 -0.0038907242 0.06313623 -0.029459469 0.001891129 -0.14227585 -0.12771115 0.0021002826
0.100051105 0.010093811 -0.016231287 0.080986716 -0.06084471 -0.12340674 -0.13144727 -0.13799372
-0.025934746 -0.040914 -0.016771048 0.011810463 -0.015185297 -0.058652908 -0.05445131 0.02764257
-0.024766367 0.051445268 -0.08676265 -0.12118271 -0.074754104 -0.10044504 -0.08554617 -0.13938583
-0.01342823 -0.11806175 -0.018167652 0.037815355 0.059536062 -0.063921005 0.059933074 -0.03939597
0.030922435 0.078259565 -0.011752658 -0.00064445287 -0.07923512 -0.12963176 -0.02001462 -0.14276928
-0.008311877 0.0023008725 0.018767025 -0.079699785 -0.008450618 -0.041305006 -0.013943381 -0.02316843
-0.07891679 -0.109978266 -0.06733735 -0.10103368 0.025976567 0.03352204 -0.13924006 0.008325957
0.12984744 -0.07311928 -0.06953428 -0.09406007 -0.13529362 -0.14114614 -0.029081706 -0.045753848
-0.053573083 -0.0065019354 -0.027750932 -0.026960067 0.002677597 -0.017676033 -0.028692704 -0.039900493
-0.14910015 0.08790815 -0.0851744 -0.020013224 0.12958108 -0.008838475 0.1905802 0.011170492
-0.42321792 0.008926118 0.20911045 -0.1399176 0.28128034 0.25011477 -0.47227794 0.19733869
-0.23803565 -0.537834 0.5887988 0.15536073 -0.0734231 0.32503015 -0.23708412 0.04084241
-0.031597383 0.005775446 0.18720005 0.37705338 -0.037832636 -0.2868249 0.24149951 -0.13884081
-0.09404465 -0.16480869 -0.29574332 -0.24957143 0.02698776 0.12992418 -0.15247245 0.028263386
-0.05430169 -0.27759758 0.13953976 -0.24898697 -0.39789465 0.057846494 -0.12815267 -0.11392053
-0.04859595 -0.056883883 -0.17747334 -0.21708512 -0.0762057 -0.20313856 -0.24050452 0.13147888
0.06215021 0.14099076 0.22033913 -0.01116303 0.33044055 0.11539263 -0.21842305 -0.24250707
-0.027225628 -0.15332566 -0.032602474 0.028731946 -0.07995041 0.0015999118 -0.3301618 -0.4704964
-0.15887322 -0.24030308 -0.22989066 -0.22626466 -0.2444944 0.009513184 -0.19204487 -0.17784864
-0.28633216 0.12388126 -0.071004294 -0.031829935 0.1001504 -0.018155657 -0.01705835 -0.07214467
0.05744218 0.040875264 -0.5272696 0.07994424 0.36748967 -0.009920735 0.19441098 0.31281215
0.19461359 -0.053320285 0.070814334 0.003759861 -0.020508379 -0.07546581 -0.07835479 -0.03983459
-0.04236012 0.0259628 -0.024259232 -0.032601845 0.101003416 -0.35393226 -0.21544366 -0.3053161

conv2.bias f4 [32]
00000000: a44b 1dbd 37bb 12bc 56b7 f1bd f110 e0bd
00000010: d333 56be aadf 21bd fb45 32bb c3af 05be
00000020: 5240 1dbd d0fd 3fbd 7dcc d4bd 95c3 63bd
00000030: 6d41 b83b 2044 023d f1d5 b8bc fe8e 5dbe
00000040: 0719 dcbd 2f96 98bd 5b31 c2bd b207 15be
00000050: 8c01 96bc 0d98 01be 9bea 4cbc cd45 b1bd
00000060: 7937 87bd 63c1 233c a359 87bd 032b 88bd
00000070: d617 47bd 9550 64bd 8577 14be bf70 16bd
-0.038402215 -0.008955768 -0.11802547 -0.10940731 -0.20918207 -0.039519943 -0.0027202356 -0.13055329
-0.03839142 -0.046872914 -0.103905655 -0.055606443 0.0056230337 0.03180325 -0.022562953 -0.21636578
-0.10746961 -0.0745052 -0.0948207 -0.14553717 -0.018311284 -0.12655659 -0.012507106 -0.086558916
-0.066023774 0.009994837 -0.06608894 -0.06648829 -0.048606716 -0.05574091 -0.14498718 -0.036728617

fc1.weight f4 [10, 1568]
00000000: 2dab 7cbc 85f2 3abd e2a0 89bd 1ea5 8d3d
00000010: 27be a03d ce8a 65bd 73b7 8c3d 20d4 ae3c
00000020: ea0f 8bbd bb9d 29bd 1f74 a6bd 4403 17bd
00000030: dfbf 8bbd e02a 79ba 0c1d 683c 53fc 6dbd
00000040: 587f 1bbd 28a1 91bd a52c 97bd a860 18bd
00000050: c6a4 99bd 025f 8e3c cb30 12bd d8e2 2fbd
00000060: dbba 4e3d 8367 743d 565a a9bd 304c 61bc
00000070: 3c47 abbb 1023 9dbd 3047 3abd ed10 963d
00000080: 5d40 583d a024 82bb f342 0cbd b0e1 cbba
00000090: 3cb7 af3c 040c 16bd 3805 8dbd f036 acbd
000000a0: 5876 13bd 5875 5ebc 52d5 c53c 2e12 84bc
000000b0: c6d9 62bd e104 57bd 280d 87bd d053 a13c
000000c0: 6e92 bbbc 1c9c 8bbd a423 80bd 673b 5abe
000000d0: d0d9 b7bd 2cb5 ef3b ac3a 03bd 46fc 24bd
000000e0: f23c 83bd f25a 9dbd c906 90be e254 3dbe
000000f0: d22b 3abe 415e 8cbd 175e b6bd 0291 6abd
00000100: 8dd7 60be e599 f93c 336e bb3c 8fe1 40be
00000110: 5ab3 f8bd bf97 753d 0137 c2bd 4ada 8dbc
00000120: 4c73 363e 8b2b 9d3d f449 0b3d caef ec3d
00000130: 2e5d 233e 3903 bcbd 8cfb cbbc 2777 ae3d
00000140: aed7 02be 7d11 1f3e 1c5a 0a3e 193d a33d
00000150: c00f cdbd 4b3b a1bc 8185 1cbe 7766 5cbd
00000160: 3b64 a33d d380 d53c 0c3f e7bd 6972 1abd
00000170: f5e1 88bc 4326 f5bd 6871 5bbe d8ae 81be
00000180: 2449 0bbe 3988 9e3c d993 a63d b811 883d
00000190: 6148 5a3d 21db db3c 06c6 a03d 699a b63d
000001a0: 943f ab3d aa7d 9339 d589 f63c 2564 983d
000001b0: 9c02 7d3d fbc3 4f3c 0d4f 8d3d eb21 cd3d
000001c0: 954e 543d ca8b 4e3c ad8c be3c f14d 3cbd
000001d0: 014f 61bd f779 dc3c 08d4 22bc 91a0 fc3c
000001e0: 85ce 973d 8dd7 4a3c f58d ccbc 2a40 d73d
000001f0: 9eac 563d 909e b6bd 4e84 a93d 8808 6e3d
00000200: 0d4d 613d 55ec 4d3d 1986 183d cfd2 ec3c
00000210: f8ff 833d 1f17 c33d e386 473d c7ae 203d
00000220: 667d 8ebd ad95 49bd be67 743d f97e 633d
00000230: 74af 863d 06d8 d33d e94c 1c3d f8c4 903d
00000240: 9daf c93d 6fe4 7c3d 89c0 7c3d 4007 3aba
00000250: 187f 1b3b 49b1 6cbd 5885 2f3c dcc4 383c
00000260: 306f 2fbb ba1f b63c c450 d6bb d873 d13b
00000270: 6ce6 bb3c 401e 693c a8aa 16bc be6c 3bbc
00000280: fcb4 9f3b 00b1 48b9 80f5 e83a a243 853c
00000290: 10a1 103c cc0d 68bc e4e8 a8bc 5896 c33c
000002a0: e833 36bb 7d01 23bc daf1 97bc 6aa9 c63c
000002b0: ecc8 503c ea25 83bc b9ac b2bc 70b8 b33c
000002c0: ec23 323c 981b 73bb 38ef abbc 14c8 7a3c
000002d0: 186f 8cbc 7452 4b3c 5b7d c4bc 9c74 b8bc
000002e0: e476 c6bc 7a8b bb3c ccff bb3c d486 b0bc
000002f0: bcec 9f3c 4a7e 7bbc 8843 c0bc 2820 473c
00000300: 488b 6a3c a087 6a3c 1c3a 913b 2a8b c63c
00000310: b1ce a5bd d4ab 58bd c113 cabd 752d 89bd
00000320: 443c 9b3d b3ed 2d3d 1775 3dbd dae9 73bd
00000330: b2b5 b1bb 29cb ed3c 1098 c93d 2003 073e
00000340: d94a 803d 0425 97bd f1b9 6abd 7cbb b4bd
00000350: 9603 30be e1ab d0bd 1afb 143c 2950 143e
00000360: ae65 323d ab16 debc 4001 df3d 6e0a e43a
00000370: fbce 86bc 7566 20be 733f 9d3d e25f 853d
00000380: 350e 2fbe f0b1 013e 512b 2f3e 6ada b63c
00000390: 1dd5 03be 7e1a c2bc 883a 01be f06b a3bd
000003a0: fbab e53d 16b5 373d 30e1 bebc 1d00 39bd
000003b0: 7b29 11be e267 2cbe 820c 8fbd 2f5d 6f3c
000003c0: c14f c7bc 0ce0 84bd b750 06be 62c7 08be
000003d0: 3869 54bd 6681 df3d d6d8 a93d a58e b33d
000003e0: f228 be3d f53d 893d f381 573d ca1c b73d
000003f0: ec1f d63d c302 8ebd 8a9d 243d 2511 253d
-0.015421671 -0.04564144 -0.06720139 0.06916259 0.07848769 -0.056040578 0.06870928 0.021341383
-0.06790145 -0.04141019 -0.08127617 -0.03686835 -0.06823706 -0.0009504985 0.014167082 -0.058101963
-0.03796324 -0.07110816 -0.07381562 -0.037201554 -0.07502131 0.017379288 -0.035691064 -0.042940944
0.050471168 0.05966903 -0.08269183 -0.013751075 -0.0052269977 -0.07672703 -0.045478046 0.07327447
0.052795757 -0.003971651 -0.034243535 -0.0015554931 0.021449678 -0.036632553 -0.06885761 -0.08408916
-0.036001533 -0.013577782 0.02414957 -0.01612195 -0.055383466 -0.052494887 -0.06594306 0.019693285
-0.022896972 -0.06816885 -0.06256798 -0.21311723 -0.08977091 0.0073152985 -0.032038376 -0.04027965
-0.06408109 -0.07683362 -0.28130177 -0.18489411 -0.18180779 -0.06853915 -0.08904665 -0.057267196
-0.21957226 0.03046889 0.022879696 -0.18836044 -0.121435836 0.05995917 -0.094831474 -0.017316002
0.1781742 0.07674321 0.034006074 0.11569174 0.15953514 -0.09180302 -0.02490022 0.0851882
-0.12777588 0.15534015 0.13510936 0.07970638 -0.1001277 -0.019681593 -0.15285303 -0.053808656
0.07978102 0.026062405 -0.11291322 -0.037706766 -0.016709307 -0.119701885 -0.2142998 -0.25328708
-0.1360212 0.019352065 0.081336685 0.066440046 0.053291682 0.026837887 0.0785027 0.0891617
0.08361736 0.00028131652 0.03009502 0.07440976 0.061770067 0.012681003 0.06899843 0.10016235
0.051832754 0.0126065705 0.023260439 -0.04597277 -0.055006985 0.026913626 -0.0099382475 0.030838283
0.07412437 0.012380493 -0.024970034 0.10510285 0.052410714 -0.08916962 0.08277188 0.058113605
0.055005122 0.050274212 0.03723726 0.028909115 0.064453065 0.095258944 0.048712622 0.03922918
-0.069575116 -0.049215008 0.05966925 0.055541012 0.06576434 0.103439376 0.038159285 0.07068819
0.09847949 0.06174129 0.061707053 -0.0007096417 0.0023726877 -0.05778626 0.010712944 0.011277404
-0.0026769154 0.022231925 -0.0065403897 0.0063919835 0.022937022 0.014228404 -0.009195961 -0.0114395
0.00487387 -0.00019139424 0.001777336 0.016267601 0.008827463 -0.014163446 -0.020618863 0.0238754
-0.0027801935 -0.009949085 -0.018547941 0.024250705 0.012743216 -0.01600929 -0.021810876 0.021938533
0.010872822 -0.0037095305 -0.020988092 0.015306491 -0.017142817 0.012409795 -0.023985555 -0.022516541
-0.024226613 0.022893656 0.022949122 -0.021548666 0.019522063 -0.015349934 -0.023469701 0.012153663
0.014315434 0.014314562 0.004431976 0.02423628 -0.08096064 -0.052898243 -0.09867049 -0.06698123
0.07579854 0.042463016 -0.046254244 -0.05954919 -0.005423271 0.029027538 0.09843457 0.13184786
0.06264276 -0.07380107 -0.057306234 -0.08824822 -0.17188868 -0.10189033 0.00909307 0.14483704
0.043554 -0.027110418 0.1088891 0.0017398128 -0.016456118 -0.15664084 0.076781176 0.06512429
-0.17095263 0.12665534 0.17106368 0.022320945 -0.12874265 -0.023694273 -0.12619984 -0.07979572
0.11214443 0.04485043 -0.023300737 -0.045166124 -0.1417598 -0.16836503 -0.069848076 0.014609619
-0.024330022 -0.06488046 -0.13116728 -0.13357309 -0.051858157 0.10913353 0.08293311 0.08767442
0.092851534 0.067012705 0.052614164 0.08941038 0.10455307 -0.069341205 0.040189303 0.040299553

fc1.bias f4 [10]
00000000: c6a1 ca3c 0b30 233e 8296 3d3d 977d 813d
00000010: 72a5 a1bd a8b5 eb3c 8e4b 97bd a569 b23d
00000020: 08ca 0fbe de59 cdbc
0.024735343 0.15936296 0.046286114 0.063227825 -0.07892884 0.028773144 -0.07387458 0.08711556
-0.14041913 -0.025067266
