models/cnn_torch.pth (torch, 84572 bytes, 6 tensors)

conv1.weight f4 [16, 1, 3, 3]
0.3864951 0.3052472 -0.338541 0.4410762 -0.022224896 -0.023434058 -0.06926586 0.2313072
0.2781417 -0.41279867 0.3509022 0.039871003 0.36905962 0.23107824 0.16063055 0.1014711
0.3436916 -0.061452754 -0.019830182 -0.18340145 -0.4933487 -0.44146776 -0.56324065 0.23635274
-0.8339569 0.15426233 0.46599767 -0.49396348 -0.4463488 -0.64519006 0.15539406 -0.38818163
0.28030106 0.23334175 0.25466335 0.52065724 0.003827273 0.16212824 -0.25521243 -0.060934708
0.14753573 -0.15346809 0.2007557 0.35245314 0.21511519 0.07058729 0.3727762 0.21762288
0.35692117 -0.2096565 -0.4937538 -0.39695802 -0.68917984 0.31533673 0.14268324 0.21701396
0.17906635 0.21281919 0.36951968 -0.2971807 0.006637509 -0.35906997 -0.16246802 -0.04093342
0.09265651 -0.35708266 0.49136618 -0.005783122 -0.31393468 0.017887004 0.53333366 0.25253645
0.24644828 -0.7568149 -0.9389137 0.06724996 -0.14766614 0.20000778 0.5055899 0.6433311
0.20149182 -0.28536955 0.07385172 -0.20625374 0.1335504 -0.16096601 0.13181561 -0.1850369
-0.22266011 0.046412412 0.23403348 -0.11045438 -0.25117135 0.43342134 -0.27256972 -0.7111282
0.5487871 -0.08203026 -0.39947313 -0.32253155 -0.19089007 0.0832679 -0.043997735 -0.241962
0.0078189075 -0.22769384 -0.2827989 -0.18355422 0.05442688 0.41550612 0.68553036 -0.3949253
0.26738653 -0.45768115 -0.79655105 -0.78091383 -0.4638042 -0.4727793 0.38986477 -0.12655722
-0.46468082 -0.34760088 -0.32052344 -0.034113552 -0.23928322 -0.20452453 -0.43948987 -0.2731407
0.3754628 -0.12877586 0.42249203 0.25820947 -0.17599632 0.28748295 -0.048131406 -0.28620687
-0.68025947 -0.63352555 0.44395906 0.07098124 -0.38511533 0.05740317 0.59172446 -0.267087
00000000: b0e2 c53e 5c49 9c3e 3f55 adbe bdd4 e13e
00000010: fc10 b6bc c8f8 bfbc 42db 8dbd cbdb 6c3e
00000020: 9768 8e3e 595a d3be 74a9 b33e c74f 233d
00000030: 62f5 bc3e c69f 6c3e 567c 243e 14d0 cf3d
00000040: 58f8 af3e e2b5 7bbd e872 a2bc 97cd 3bbe
00000050: 3398 fcbe 1008 e2be 8a30 10bf 7406 723e
00000060: 337e 55bf f2f6 1d3e 3f97 ee3e c8e8 fcbe
00000070: d487 e4be 2d2b 25bf 9f1f 1f3e bebf c6be
00000080: 9f83 8f3e 24f1 6e3e 3c63 823e cb49 053f
00000090: fcd2 7a3b f204 263e 34ab 82be ac96 79bd
000000a0: 9b13 173e bd26 1dbe e792 4d3e bd74 b43e
000000b0: 2847 5c3e 1290 903d 86dc be3e 88d8 5e3e
000000c0: 5fbe b63e 32b0 56be 4ccd fcbe 153e cbbe
000000d0: 176e 30bf d173 a13e 8e1b 123e e838 5e3e
000000e0: 2b5d 373e 46ed 593e af31 bd3e 1228 98be
000000f0: 767f d93b 05d8 b7be 045e 26be cda9 27bd
00000100: b2c2 bd3d 8ad3 b6be 5994 fb3e 5880 bdbb
00000110: 0cbc a0be c487 923c 8e88 083f 754c 813e
00000120: f05c 7c3e 9fbe 41bf a65c 70bf 59ba 893d
00000130: cb35 17be d7ce 4c3e 576e 013f 59b1 243f
00000140: df53 4e3e f51b 92be 923f 973d 2e34 53be
00000150: 70c1 083e 46d4 24be acfa 063e 507a 3dbe
00000160: 0301 64be f11a 3e3d 79a6 6f3e e835 e2bd
00000170: 8899 80be 67e9 dd3e 428e 8bbe 7f0c 36bf
00000180: 507d 0c3f 7bff a7bd be87 ccbe db22 a5be
00000190: b078 43be 5c88 aa3d f836 34bd e3c4 77be
000001a0: e01a 003c 9328 69be 04cb 90be a3f5 3bbe
000001b0: b8ee 5e3d 38bd d43e eb7e 2f3f a633 cabe
000001c0: e3e6 883e 2f55 eabe c5ea 4bbf f8e9 47bf
000001d0: be77 edbe 2110 f2be 5b9c c73e 3798 01be
000001e0: a5ea edbe bef8 b1be a61b a4be a7ba 0bbd
000001f0: a906 75be e16e 51be d104 e1be 19d9 8bbe
00000200: a93c c03e d2dd 03be e050 d83e 0834 843e
00000210: 6138 34be f730 933e 7025 45bd b589 92be
00000220: 7c25 2ebf bb2e 22bf 9a4e e33e 9d5e 913d
00000230: d62d c5be 961f 6b3d 417b 173f a1bf 88be

conv1.bias f4 [16]
-0.10045229 -0.2000168 0.14415471 0.0017947027 -0.11102241 -0.24282312 -0.05494636 -0.27812767
-0.081075065 -0.32311088 0.07605706 -0.24465017 0.13177393 0.17478682 -0.11988464 0.005180475
00000000: eeb9 cdbd 34d1 4cbe 4b9d 133e 3b3c eb3a
00000010: b85f e3bd a0a6 78be 6f0f 61bd c066 8ebe
00000020: af0a a6bd ca6e a5be cec3 9b3d 9385 7abe
00000030: bfef 063e 51fb 323e 1486 f5bd f9c0 a93b

conv2.weight f4 [32, 16, 3, 3]
0.36310628 0.22445196 0.16977291 -0.04622747 0.03398529 -0.05255705 -0.3666648 -0.161684
-0.22138214 0.19139545 0.16877364 0.21322943 -0.06808202 -0.01002351 -0.11925922 -0.26875263
-0.30592 -0.05921329 -0.16830158 -0.10775677 -0.0075663016 -0.11992447 -0.101307794 -0.018194618
0.08767017 0.18397158 0.19740167 -0.0022416865 0.07855407 -0.0987176 -0.23142095 -0.1080307
-0.030992283 0.31093833 0.22347762 0.17905141 0.14946301 0.13821109 0.09251311 -0.02164775
-0.08138406 -0.109656826 0.0037529813 -0.05193188 -0.060990203 0.03941603 -0.027662473 0.18006054
-0.05559803 0.066722944 0.36995322 -0.545009 0.23779431 0.009873274 0.1910635 0.26142213
0.22635737 0.008111564 0.1351262 0.04249923 -0.33936393 -0.11580387 -0.28054076 0.23688146
0.08446542 0.13905013 -0.06372115 -0.028357293 -0.2956503 -0.12596601 -0.21274568 -0.05682196
0.3239197 0.30284342 0.014957035 -0.24202895 -0.23301455 -0.6299328 0.17004123 0.05419571
0.004007059 0.014138991 -0.016771048 0.027246142 -0.068026684 -0.10686098 -0.00974324 0.08698565
0.02938675 0.10845132 0.054381017 -0.14805749 -0.11668394 -0.28203094 -0.14071749 -0.16360883
-0.076842055 -0.05826912 -0.03381153 0.037815355 0.059536062 -0.063921005 0.059933074 -0.03939597
0.030922435 0.078259565 -0.011752658 -0.00064445287 0.11589723 0.0014960596 0.18513751 0.08131454
0.10633864 0.050532755 0.31996328 0.10036102 -0.21652795 -0.2042224 -0.08125708 -0.15952224
-0.026935417 -0.19011688 -0.033178616 0.09534777 0.047671273 0.015978612 0.0796349 0.27918786
0.24872863 -0.117625415 -0.07143911 -0.14537881 -0.3313038 -0.37448984 -0.005247615 0.35084522
-0.005924593 -0.32072034 0.17539181 0.1920536 -0.3200354 0.60231864 0.3525261 -0.3696713
-0.24478553 0.078132726 -0.042023364 0.013990956 0.062892795 -0.11233479 0.17013343 0.029913446
-0.38537666 0.02889122 0.19227542 -0.02463201 0.22843748 0.2133637 -0.3966823 0.15543321
-0.19954182 -0.366711 0.3805286 0.08263149 -0.17109555 0.18711941 -0.29498035 0.04717789
-0.17500117 -0.09601123 0.26504564 0.25556722 -0.11512416 -0.2523179 0.13458793 -0.20519349
-0.06606531 -0.1342792 -0.25164622 0.082199745 -0.022276025 0.052912105 -0.11550765 -0.0033132965
-0.05786944 -0.2699234 0.14932342 -0.1460464 -0.24297273 -0.088525005 -0.07220079 0.4817566
-0.09313944 0.406769 -0.16742603 0.2021881 0.12716606 -0.37851694 -0.30767614 0.15809268
0.06639178 0.02790643 0.11640074 -0.10207005 0.20847039 0.049431734 -0.3119407 -0.23916304
-0.07773648 -0.12543257 0.021510955 -0.05258189 -0.3315895 0.0077980077 -0.19247757 -0.33286405
-0.24111603 -0.2338468 -0.057267603 -0.34673935 -0.23947021 -0.061904203 -0.14973591 0.07478328
0.024149064 0.11389947 -0.12391309 -0.031829935 0.115699306 0.031155493 -0.07143912 0.049064815
0.10300099 -0.014247395 -0.33895126 -0.034475163 0.18131873 -0.086326286 0.1198876 0.13135889
0.18739183 0.09236432 -0.027717406 0.003759861 -0.020508379 -0.07546581 -0.07835479 -0.03983459
-0.04236012 0.0259628 -0.024259232 -0.032601845 -0.019602057 -0.189215 0.09189253 -0.37275875
00000000: 11e9 b93e bcd6 653e f3d8 2d3e 0459 3dbd
00000010: 2934 0b3d 1046 57bd 7dbb bbbe 7e90 25be
00000020: 00b2 62be 2bfd 433e ffd2 2c3e d158 5a3e
00000030: 966e 8bbd a639 24bc 2e3e f4bd f299 89be
00000040: 8ca1 9cbe a389 72bd 4057 2cbe 95af dcbd
00000050: bdee f7bb f69a f5bd 767a cfbd e10c 95bc
00000060: 6b8c b33d 0c63 3c3e aa23 4a3e 42e9 12bb
00000070: f5e0 a03d 742c cabd 9df9 6cbe 333f ddbd
00000080: 87e3 fdbc 4f33 9f3e 51d7 643e 4159 373e
00000090: d50c 193e 3587 0d3e 8377 bd3d 9f56 b1bc
000000a0: b0ac a6bd c293 e0bd 94f4 753b 86b6 54bd
000000b0: ddd0 79bd b472 213d 699c e2bc ca61 383e
000000c0: c3ba 63bd 0aa6 883d 826a bd3e b685 0bbf
000000d0: 5a80 733e 83c3 213c 26a6 433e 1fd9 853e
000000e0: 3aca 673e 5ee6 043c 865e 0a3e ac13 2e3d
000000f0: 1cc1 adbe 942a edbd 0aa3 8fbe 0e91 723e
00000100: 35fc ac3d 2863 0e3e 3c80 82bd 8e4d e8bc
00000110: 7a5f 97be 3cfd 00be 01da 59be 25be 68bd
00000120: ced8 a53e 4b0e 9b3e 5a0e 753c 70d6 77be
00000130: 5e9b 6ebe 4743 21bf 4a1f 2e3e 52fc 5d3d
00000140: a64d 833b 3aa7 673c 7063 89bc 4d33 df3c
00000150: 9351 8bbd eed9 dabd 1ca2 1fbc 8825 b23d
00000160: 7bbc f03c ba1b de3d a1be 5e3d 629c 17be
00000170: fdf7 eebd 5c66 90be 3f18 10be 1389 27be
00000180: 5e5f 9dbd 9aab 6ebd f57d 0abd 46e4 1a3d
00000190: 16dc 733d 04e9 82bd 627c 753d ab5d 21bd
000001a0: 0c51 fd3c 8d46 a03d 388e 40bc 80f0 28ba
000001b0: 875b ed3d 6e17 c43a b094 3d3e 3d88 a63d
000001c0: 13c8 d93d 6ffb 4e3d 3ad2 a33e 148a cd3d
000001d0: 81b9 5dbe ad1f 51be 1d6a a6bd cc59 23be
000001e0: aaa7 dcbc 00ae 42be 4de6 07bd b145 c33d
000001f0: f442 433d 94e5 823c 9f17 a33d b6f1 8e3e
00000200: b8b2 7e3e 98e5 f0bd ab4e 92bd 2fde 14be
00000210: a7a0 a9be 22bd bfbe 2ff4 abbb fca1 b33e
00000220: 1723 c2bb 7535 a4be e999 333e b3a9 443e
00000230: aedb a3be 8e31 1a3f 4d7e b43e 8e45 bdbe
00000240: 0fa9 7abe 0d04 a03d b120 2cbd 533a 653c
00000250: f0cd 803d c80f e6bd 7537 2e3e 0b0d f53c
00000260: 1750 c5be 48ad ec3c d9e3 443e 12c9 c9bc
00000270: 84eb 693e 047c 5a3e f119 cbbe e229 1f3e
00000280: b154 4cbe 8bc1 bbbe a5d4 c23e b33a a93d
00000290: ac33 2fbe 3b9c 3f3e aa07 97be 9a3d 413d
000002a0: 8233 33be 89a1 c4bd 10b4 873e b5d9 823e
000002b0: 37c6 ebbd d02f 81be 6bd1 093e 3e1e 52be
000002c0: 404d 87bd 7d80 09be c6d7 80be 5758 a83d
000002d0: 367c b6bc 5dba 583d 468f ecbd e423 59bb
000002e0: 8208 6dbd 6633 8abe 3de8 183e 308d 15be
000002f0: d8cd 78be 994c b5bd 02de 93bd cda8 f63e
00000300: e4bf bebd 0744 d03e bb71 2bbe 660a 4f3e
00000310: d237 023e f9cc c1be ba87 9dbe 0ce3 213e
00000320: 6af8 873d 079c e43c 8363 ee3d 1a0a d1bd
00000330: 4379 553e ee78 4a3d b1b6 9fbe 28e7 74be
00000340: 4e34 9fbd 6571 00be be37 b03c 1c60 57bd
00000350: 19c6 a9be 6e86 ff3b d718 45be 286d aabe
00000360: 1fe7 76be 8975 6fbe 6f91 6abd d287 b1be
00000370: ae37 75be 438f 7dbd 5f54 19be fa27 993d
00000380: 42d4 c53c 2044 e93d 25c6 fdbd 1b60 02bd
00000390: c2f3 ec3d ce39 ff3c ac4e 92bd 30f8 483d
000003a0: 2ff2 d23d e86d 69bc 058b adbe d435 0dbd
000003b0: 9eab 393e d6cb b0bd a187 f53d f282 063e
000003c0: a5e3 3f3e 8129 bd3d 9d0f e3bc 0068 763b
000003d0: 3001 a8bc d28d 9abd 7a78 a0bd 9829 23bd
000003e0: ce81 2dbd f0af d43c 4cbb c6bc 8389 05bd
000003f0: 7e94 a0bc 94c1 41be 2732 bc3d 3cda bebe

conv2.bias f4 [32]
-0.094521366 -0.05305805 -0.12333737 -0.10962484 -0.18092747 -0.028474394 0.010732282 -0.13851905
-0.03839138 -0.0687012 -0.10315179 -0.032435037 0.016639164 0.01201732 0.002335898 -0.07126955
-0.2616973 -0.17360182 -0.19207478 -0.067486964 -0.015350856 -0.10215134 0.03285752 -0.10569469
-0.09934065 0.01307584 -0.06507081 -0.05142988 -0.08838671 -0.1387468 -0.11900718 -0.04134859
00000000: 6b94 c1bd 6653 59bd 4e98 fcbd fd82 e0bd
00000010: 0d45 39be 2243 e9bc 74d6 2f3c f0d7 0dbe
00000020: 4840 1dbd 37b3 8cbd 3f41 d3bd 9ada 04bd
00000030: db4e 883c 4be4 443c de15 193b c5f5 91bd
00000040: 30fd 85be adc4 31be 40af 44be 9b36 8abd
00000050: 2882 7bbc b934 d1bd 9b95 063d 7576 d8bd
00000060: 1c73 cbbd 0c3c 563c d843 85bd 23a8 52bd
00000070: 1704 b5bd a413 0ebe 09ba f3bd 245d 29bd

fc1.weight f4 [10, 1568]
0.1307673 0.17059338 0.18187584 0.19066055 0.09081931 0.233739 0.12377616 0.038709927
-0.26312757 -0.26935205 -0.1068538 -0.2465304 -0.31233478 0.008038758 0.09578968 -0.27415705
-0.11625415 0.05234785 -0.003825998 -0.29587135 -0.12796661 0.056970324 -0.28762072 -0.32515976
-0.16785936 -0.23668069 -0.22086635 -0.13845758 -0.071020596 -0.07787355 -0.2282001 -0.4496407
0.077076904 0.19759168 0.06860096 0.035941824 0.03184502 0.12981687 0.14273778 0.043818064
0.0015310701 -0.043596923 0.19906075 0.09909256 0.08723142 0.08599562 0.02140298 -0.029405694
-0.05007708 -0.06091151 -0.050692093 -0.19935498 -0.045315735 0.0064311787 -0.037233867 -0.0037115254
-0.08658422 -0.139852 -0.14554386 -0.09497858 -0.087732635 -0.022480067 -0.018697761 -0.0859143
-0.07035453 0.043079432 0.009424127 -0.1404058 -0.037914887 0.10247403 -0.05984727 0.114404164
0.16897716 0.14360453 -0.09433416 0.021032311 0.10882052 -0.09752878 0.023770047 0.0928746
-0.11477873 0.061943553 0.03849962 0.077183865 -0.1020548 -0.045070168 -0.057227656 -0.03116911
0.014537435 0.055606734 0.075394444 -0.048433565 0.00934929 -0.071700215 -0.21144713 -0.22600466
-0.25178236 -0.031220432 0.020137966 0.08187063 -0.0613718 -0.08536519 0.07925834 0.12373802
-0.023484487 0.010119156 0.0021454508 -0.13375954 0.11779871 -0.031397596 -0.09417094 -0.10811492
0.024407817 0.0483717 0.23981401 -0.23615514 -0.6262319 -0.10515893 -0.039579045 0.069758534
-0.005738747 -0.078982204 -0.17797238 0.2703258 -0.0031416297 -0.114992976 0.037060857 -0.5408168
-0.18105327 -0.077925555 0.120636836 -0.08282749 -0.019178713 -0.18903491 -0.56994283 -0.5951841
-0.31908193 0.15540914 -0.03399853 5.6859328e-05 -0.10831222 0.047902193 0.15269524 0.112138875
0.104204744 -0.032030478 0.011441622 -0.0007096417 0.0023726877 -0.0066971164 -0.03988851 0.011277404
-0.0026769154 0.022231925 -0.0065403897 0.0063919835 0.022937022 0.014228404 -0.009195961 -0.0114395
0.00487387 -0.00019139424 0.001777336 0.016267601 0.008827463 -0.014163446 -0.020618863 0.0238754
-0.0027801935 -0.009949085 -0.018547941 0.024250705 0.012743216 -0.01600929 -0.021810876 0.021938533
0.010872822 -0.0037095305 -0.020988092 0.015306491 -0.017142817 0.012409795 -0.023985555 -0.022516541
-0.024226613 0.022893656 0.022949122 -0.021548666 0.019522063 -0.015349934 -0.023469701 0.012153663
0.014315434 0.014314562 0.004431976 0.02423628 0.0036172548 0.053517126 -0.055619903 0.01649707
-0.01640643 -0.02810991 0.003042432 -0.019758843 -0.020976447 -0.06985875 0.050552387 0.06471713
-0.03035989 -0.06006192 0.00073323736 -0.027672278 -0.10470765 -0.15032156 0.03190776 0.06194069
0.064245425 0.101172544 0.15115176 0.047352668 0.041975513 -0.012263726 0.08295612 0.059944954
-0.031120485 0.112028055 0.16157387 -0.06700019 -0.03642948 0.028067153 -0.02024779 -0.016460922
0.07377136 0.1018226 -0.08602605 -0.04408004 -0.054520335 -0.040341932 -0.036168307 -0.015098151
-0.09449737 -0.14931966 -0.32732525 -0.04356611 0.017616577 -0.0028067927 -0.008580288 -0.0041053086
0.001330114 -0.012315051 -0.02134944 -0.017764749 0.0005783196 -0.016026437 -0.0029920207 0.013536754
00000000: dde7 053e 08b0 2e3e a93d 3a3e 853c 433e
00000010: 79ff b93d 4759 6f3e 5b7e fd3d 4d8e 1e3d
00000020: a8b8 86be 83e8 89be 2ad6 dabd 7772 7cbe
00000030: 58ea 9fbe ffb4 033c 612d c43d 505e 8cbe
00000040: a816 eebd b36a 563d 98bd 7abb 737c 97be
00000050: ae09 03be b759 693d 0643 93be 577b a6be
00000060: 53e3 2bbe 6c5c 72be ca2a 62be d3c7 0dbe
00000070: 3f73 91bd 2b7c 9fbd 49ad 69be 4e37 e6be
00000080: 7fda 9d3d 7955 4a3e a97e 8c3d bc37 133d
00000090: ec6f 023d b7ee 043e da29 123e 927a 333d
000000a0: 30ae c83a b092 32bd 95d6 4b3e 0af1 ca3d
000000b0: 63a6 b23d 791e b03d 4d55 af3c 36e4 f0bc
000000c0: a01d 4dbd 597e 79bd 83a2 4fbd b623 4cbe
000000d0: fe9c 39bd a3bc d23b 8a82 18bd 103d 73bb
000000e0: 1153 b1bd 5d35 0fbe 7309 15be 2184 c2bd
000000f0: 2bad b3bd 1e28 b8bc 0c2c 99bc d6f3 afbd
00000100: 0916 90bd 0f74 303d a767 1a3c 8ac6 0fbe
00000110: a44c 1bbd e7dd d13d 6922 75bd bb4c ea3d
00000120: 5908 2d3e 110d 133e 4532 c1bd f44b ac3c
00000130: 4bdd de3d 2bbd c7bd 67b9 c23c 0a35 be3d
00000140: 1c11 ebbd 86b8 7d3d c7b1 1d3d 9312 9e3d
00000150: 1b02 d1bd 7f9b 38bd 8c67 6abd 5d56 ffbc
00000160: 6c2e 6e3c e3c3 633d 6768 9a3d 4662 46bd
00000170: c42d 193c 90d7 92bd 9985 58be c46d 67be
00000180: 9ee9 80be fec1 ffbc 60f8 a43c caab a73d
00000190: ff60 7bbd f2d3 aebd 3252 a23d 5c6a fd3d
000001a0: 8a62 c0bc d1ca 253c b19a 0c3b 43f8 08be
000001b0: 7340 f13d c49a 00bd b2dc c0bd 5b6b ddbd
000001c0: e7f2 c73c 6721 463d ce91 753e a7d2 71be
000001d0: bc50 20bf 915d d7bd a31d 22bd 90dd 8e3d
000001e0: 190c bcbb 6cc1 a1bd 643e 36be 2568 8a3e
000001f0: cde3 4dbb 7081 ebbd 20cd 173d f872 0abf
00000200: 0766 39be 6f97 9fbd 7210 f73d 76a1 a9bd
00000210: ad1c 9dbc 5e92 41be c6e7 11bf fc5d 18bf
00000220: b55e a3be 9323 1f3e 0b42 0bbd 3d7c 6e38
00000230: ccd2 ddbd 1735 443d 245c 1c3e 11a9 e53d
00000240: 4c69 d53d 6432 03bd a475 3b3c 4007 3aba
00000250: 187f 1b3b 7c73 dbbb 2262 23bd dcc4 383c
00000260: 306f 2fbb ba1f b63c c450 d6bb d873 d13b
00000270: 6ce6 bb3c 401e 693c a8aa 16bc be6c 3bbc
00000280: fcb4 9f3b 00b1 48b9 80f5 e83a a243 853c
00000290: 10a1 103c cc0d 68bc e4e8 a8bc 5896 c33c
000002a0: e833 36bb 7d01 23bc daf1 97bc 6aa9 c63c
000002b0: ecc8 503c ea25 83bc b9ac b2bc 70b8 b33c
000002c0: ec23 323c 981b 73bb 38ef abbc 14c8 7a3c
000002d0: 186f 8cbc 7452 4b3c 5b7d c4bc 9c74 b8bc
000002e0: e476 c6bc 7a8b bb3c ccff bb3c d486 b0bc
000002f0: bcec 9f3c 4a7e 7bbc 8843 c0bc 2820 473c
00000300: 488b 6a3c a087 6a3c 1c3a 913b 2a8b c63c
00000310: 770f 6d3b c634 5b3d b2d1 63bd dd24 873c
00000320: c766 86bc c146 e6bc 8a63 473b 4cdd a1bc
00000330: ccd6 abbc 1b12 8fbd 0510 4f3d 6a8a 843d
00000340: 4eb5 f8bc 7d03 76bd ba36 403a f9b0 e2bc
00000350: f770 d6bd e5ed 19be b6b1 023d 85b5 7d3d
00000360: 1b93 833d 8d33 cf3d 87c7 1a3e dff4 413d
00000370: 84ee 2b3d cced 48bc e6e4 a93d d788 753d
00000380: 63f0 febc f76e e53d 9f73 253e 6537 89bd
00000390: 1437 15bd 16ed e53c b1de a5bc 0ed9 86bc
000003a0: 7015 973d 5e88 d03d 6d2e b0bd 468d 34bd
000003b0: b750 5fbd 953d 25bd 3825 14bd 3c5e 77bc
000003c0: d687 c1bd 41e7 18be 2d97 a7be 6172 32bd
000003d0: a450 903c 2bf2 37bb 5694 0cbc d385 86bb
000003e0: 3857 ae3a 11c5 49bc 05e5 aebc 6187 91bc
000003f0: 5f9a 173a e049 83bc c715 44bb 43c9 5d3c

fc1.bias f4 [10]
0.031198438 0.10577328 -0.015557985 -0.03964051 0.01200848 -0.030225057 -0.03609842 0.023755154
-0.052869085 0.030354444
00000000: de93 ff3c a99f d83d ebe6 7ebc 165e 22bd
00000010: 37bf 443c 8a9a f7bc f0db 13bd 2b9a c23c
00000020: 418d 58bd e2a9 f83c
