models/pytorch.pth (torch, 165768 bytes, 6 tensors)

linear_relu_stack.0.weight f4 [50, 784]
00000000: fd43 19bd ea2d 7f3d 6011 27bb d446 c33c
00000010: e84d eebc 18f5 8bbd 6c06 6bbd c0ff 43bb
00000020: 7ad9 673d 2406 8fbd bcdd fbbc 4a51 543d
00000030: 2b56 0a3e 3973 8d3e 7e6a 52be 4c12 c63b
00000040: 119c aa3d 0045 d13a 932d 04bd a67b 9ebd
00000050: c0cb a53c b6ee 743d 9d54 823d 917d a33d
00000060: 3b74 933d a042 963c 1ef8 643d 18cf 6abd
00000070: b068 4dbc f616 703d 999a 863d 10de 66bc
00000080: 4006 2a3c dc39 52bd 49ce 1ebf e6ae 36bf
00000090: ac7d 9cbe 0b58 41be ede7 2d3d 3c76 dc3c
000000a0: 5896 dfbc 17d3 ea3d 6c99 f53c b4fd 42be
000000b0: 0492 6fbf 9d74 2fbf 8e6d 1dbe 9772 863e
000000c0: 2326 a33e 17cc 9e3e 87e2 30be 924e b1be
000000d0: 162b 77bd 00be e239 c85e 673c cd27 85bd
000000e0: e2ac 4e3d da1d 003d e4ce 84bc 8ed4 443d
000000f0: 30a6 5cbf 56e5 1dbe f32b f0be ee1c 14bf
00000100: b68f 36be bf7f e6be 9d86 e2bf 01f3 7ebf
00000110: 5edb 5bbf fd10 84bf 70a9 9fbf a99a 0bbf
00000120: f6df d2be 213d 6abf df71 c8be 64e4 943f
00000130: 0fd6 bd3f 52d4 0a3f 0bfe a83e 9e6d d5be
00000140: 465f a13e e312 983c a8be ec3c 009a beba
00000150: 60f1 823c 50c8 223c ac28 78be 8f18 4dbd
00000160: 04de d73e e40e 5fbf e517 11bf 6aed 1cbf
00000170: 00b7 97be dbff 77bf be84 17bf 181d 803e
00000180: 31c9 6e3f 3a1f 71be 8279 30bf b28e 2cbf
00000190: 5dd3 f7be 8428 dc3e ce49 a23f c3c4 a03f
000001a0: b47b 503f a581 95be ff8c d8be 441c 573d
000001b0: bb8c 383f fc9e 443f c4ee 523d 941d 9b3c
000001c0: e0a4 c83b 9261 d13d d69c 89bc b253 43bd
000001d0: a550 c03d 11cd 043f b18c 13bf 4369 723e
000001e0: 0702 893c 697e 98bf 7df0 5cbf c640 8dbe
000001f0: a440 22bd 3767 67bf 3352 10bf dba1 803d
00000200: 5075 ec3d 4df2 50be 9311 b7bc 7783 d5bc
00000210: b7de 6f3e 03be 523e 076a fc3e c103 1d3e
00000220: 8816 a53e bd67 1ebf 5a71 a6be 0600 d93d
00000230: 6fc9 983d fdc1 a0bd d1d3 f5bb e47b ed3e
00000240: dcab 1b3f 06f9 ee3f f1f6 cb3f 3f15 533e
00000250: 3273 61bf 083b 8dbf 231e 48bf be82 70bf
00000260: 805b 06bf f093 80bf c919 45bf 69fd 1e3e
00000270: 8562 823c c4c8 153d c2d6 bf3e 639c 943e
00000280: 4fe9 bbbd f4da aebc 9bd4 a13e 71c1 0b3f
00000290: 5c7d 0e3e 7f5c 61be 383d f3be 6da2 a53e
000002a0: 9019 a5bb dd32 ca3e 33ba 55be ee79 6b3f
000002b0: a3d3 373f f81e ad3f 9d1e c03f 4f6c 043f
000002c0: 5b01 793d 190c 7a3d 87ec 58be a13c 3fbf
000002d0: bf41 36bf 7b2c 75bf deb2 6fbf fb9a 74be
000002e0: 2c2a 4b3c a554 4a3e 3f2f fb3d 03d4 893e
000002f0: 36a3 933e 2a85 513e 2bdd 94be 17aa 54be
00000300: 3997 47bf 4ff4 853d 7f6f f7be b1eb dcbe
00000310: f013 023e f143 963f ed7d 783c aa8a cc3e
00000320: a405 1e3c fd78 243f f2ea 013f 6d31 4b3f
00000330: 0d2a 123e 5d98 c53e 887e 70be 4d6b 5abf
00000340: 68e6 6abf ac2e 62bf 9ad7 82bf 8517 bbbe
00000350: 8a14 04be 38ee 8c3e 69de 023f 2196 2f3f
00000360: 94e5 c83e f68f 993e f4fe 053d e452 5e3d
00000370: 5415 adbf 32d3 d7bf 0e83 66bf 9198 e7be
00000380: e6b8 bf3d d382 3f3f 2f17 19be 37ef 27bf
00000390: ff6e ab3e 7bcc 4c3f 5520 f93e 54d7 713f
000003a0: e349 673e fa9a 403f 4b1c 8e3d 5552 b3be
000003b0: e4ea b8be 78ea 70bf 2a9c 8ebf 394c 99be
000003c0: 4e03 c53e 3640 e73e 2b14 1d3f 2de0 453f
000003d0: 25d1 bb3e 2420 b13d 7563 f7be 2c9b 44be
000003e0: 84bc ffbf 8b30 ddbf fadf 25bf 9a44 03be
000003f0: bc52 b03d b887 363f e4bf ec3d 3b3b 3dbf
-0.037418354 0.062299646 -0.0025492534 0.023837484 -0.029089883 -0.06833857 -0.05737917 -0.0029907078
0.056603886 -0.06983593 -0.03074538 0.051835336 0.13509433 0.2762697 -0.20548436 0.0060446616
0.083305486 0.0015965998 -0.032270025 -0.07738428 0.020238757 0.059797965 0.06363795 0.07982934
0.071999036 0.018342316 0.055900685 -0.057326406 -0.0125371665 0.058615647 0.06572456 -0.01409103
0.010377467 -0.05132471 -0.62033516 -0.71360624 -0.3056463 -0.18881242 0.04245751 0.026911847
-0.02729337 0.114660434 0.029980384 -0.19042093 -0.9358218 -0.6853731 -0.15373823 0.262593
0.31865034 0.31015083 -0.17273913 -0.34630257 -0.060343824 0.0004324764 0.014121719 -0.06501732
0.050457843 0.03127847 -0.016211934 0.04805427 -0.8619108 -0.15419516 -0.4690853 -0.57856643
-0.17828259 -0.45019338 -1.7697331 -0.99589545 -0.858816 -1.0317684 -1.2473583 -0.5453287
-0.41186494 -0.91499525 -0.39149377 1.1632199 1.483095 0.54230225 0.3300632 -0.41685194
0.31518 0.018563693 0.028899506 -0.0014541745 0.015984237 0.0099354535 -0.24234265 -0.05007225
0.42161572 -0.87132096 -0.56677085 -0.61299765 -0.29631805 -0.9687478 -0.59186924 0.25022197
0.93275744 -0.23547068 -0.68935406 -0.67405236 -0.48403445 0.4299966 1.2678773 1.2560047
0.81438756 -0.29200473 -0.4229507 0.05251719 0.7208974 0.7680509 0.051497236 0.018935002
0.0061231703 0.10223688 -0.016798418 -0.04768724 0.09390382 0.51875407 -0.57636553 0.23672967
0.0167246 -1.1913577 -0.86304456 -0.2758848 -0.039612427 -0.9039187 -0.56375426 0.062808715
0.11545813 -0.2040493 -0.022347247 -0.026063664 0.23424803 0.20580296 0.49299642 0.15333463
0.32243752 -0.6187704 -0.32508355 0.105957076 0.074602954 -0.078495 -0.007502057 0.46383584
0.6080911 1.8669746 1.5934736 0.20613573 -0.880664 -1.103364 -0.78170985 -0.93949497
-0.5248337 -1.0045147 -0.7699247 0.15526356 0.015916118 0.03656842 0.37468535 0.29025564
-0.091753595 -0.02134464 0.31607518 0.54592043 0.13915008 -0.2200794 -0.47507644 0.32350484
-0.0050384477 0.3949193 -0.2087181 0.91982925 0.71807307 1.3525076 1.5009342 0.51727766
0.06079231 0.061046693 -0.21183978 -0.7470189 -0.7119407 -0.95770997 -0.93632305 -0.23887245
0.012400191 0.19758852 0.12264871 0.26919565 0.28835458 0.20460954 -0.29074988 -0.20768009
-0.7796512 0.06540739 -0.48327252 -0.43148568 0.12702918 1.1739484 0.015166742 0.39949542
0.0096448995 0.64247113 0.50749123 0.7937229 0.14273854 0.38592806 -0.23485768 -0.8531998
-0.9175782 -0.88352466 -1.0222046 -0.3654138 -0.1289846 0.27525496 0.5112062 0.68588454
0.39237654 0.29992646 0.032713845 0.05427827 -1.3522134 -1.6861327 -0.90043724 -0.45233586
0.093614385 0.74808997 -0.1495025 -0.6559939 0.3348312 0.7999951 0.4865748 0.9446919
0.2258678 0.75236475 0.0693899 -0.35023752 -0.36116707 -0.9410777 -1.1141407 -0.29940966
0.38479084 0.45166177 0.613589 0.7729519 0.36683002 0.086487085 -0.48318067 -0.19199818
-1.9979405 -1.7280439 -0.64794886 -0.12819138 0.0860953 0.7130084 0.11560038 -0.73918504

linear_relu_stack.0.bias f4 [50]
00000000: edc3 16bf 648b c3bd 9fbd 30be 8960 d4be
00000010: b3d6 abbd 41d2 98bd fc9f 84be fdbb 513f
00000020: 5077 cc3d bfdd c1be 30e3 1cbd 69a1 b0be
00000030: c8a0 c2bd ee0c c8be f103 3f3e 8bff a93e
00000040: 6b1c 96bd 89f7 b3bd 4ed3 033f fb57 57bd
00000050: 52f1 093f 5fc8 103f 61b2 53bf 4299 f53d
00000060: b2f4 073f 923c 24bd bf03 40bf 32b4 f7bd
00000070: 63bb 103d e828 85bd c43e 70be 167d 3f3e
00000080: 6c8c 80be b32b d83e 9bce e1be 2095 5bbd
00000090: 485e 4ebd 455e bc3e b555 b1be cd4b d5bd
000000a0: f347 b53e f138 9abd ab5f 293e de03 66bd
000000b0: 57f7 1abf 9c83 d1be b624 123f e232 0fbe
000000c0: ebed 24bd 5eb4 2abe
-0.5889271 -0.09548071 -0.17259835 -0.414799 -0.0839056 -0.07461978 -0.25903308 0.8192747
0.099836946 -0.3786449 -0.0383026 -0.34498146 -0.09503323 -0.39072365 0.18653847 0.33202776
-0.07329639 -0.08787448 0.514943 -0.05257414 0.5388385 0.5655574 -0.8269406 0.11992122
0.5310775 -0.040096827 -0.75005716 -0.120949164 0.035334956 -0.06501943 -0.23461443 0.1870006
-0.25107133 0.4222084 -0.4410294 -0.053609014 -0.050382882 0.36790672 -0.34635702 -0.104148485
0.35406455 -0.07530392 0.165404 -0.05615603 -0.6053366 -0.40920722 0.57087266 -0.13984254
-0.04026596 -0.16670367

linear_relu_stack.2.weight f4 [25, 50]
00000000: b849 3cbe 9039 4cbe d6fe 23be 0cc1 52bf
00000010: 29fe 8d3d 4b44 9fbe e6ec 57bf c8e6 8ebf
00000020: 69e6 5cbf a2d4 9d3e d8f3 73bd 2920 77bf
00000030: b0ab 24be b0f3 bf3e 4074 b2be 73de 4f3e
00000040: 2117 503e 5a84 8d3e 4a23 adbe 9f8b 9a3c
00000050: 0c47 a9ba c600 cbbd bf74 a1bd 980f 86bf
00000060: e464 163e 3870 e93d 43a0 bfbf a21c b23c
00000070: 238e fabe 22a9 46bd 5c4b 09be 3df6 edbe
00000080: cc85 a73e 1194 26be 6ee9 fcbe 3218 133e
00000090: 1b01 43bf e019 9ebe 0d25 0cbd e4fc 5fbe
000000a0: 8317 1dbe e873 1d3e aef0 81be edb8 233e
000000b0: 9c5d 213e dfe7 cd3e 9b51 063f a672 8dbf
000000c0: eb66 a73b 2371 5b3a 19e5 1abe af8f 0e3e
000000d0: e149 7fbe 3916 12be ddd0 773e e314 95bc
000000e0: a2de d4be c3ff 99bf 0e2f 21bf c95e 4cbe
000000f0: 4ecf 123e 4a95 293f e3d3 2c3e b12a 4b3d
00000100: 2ccc 11be 9155 60be d8b3 eabb d0e3 5ebe
00000110: ea15 233f 1bae 963e ecde e53e d293 fcbe
00000120: 8883 43be fff9 2abf 221b 083f 6161 56be
00000130: 0622 873e dec2 9e3e b166 8ebf 4f37 23be
00000140: 02f2 29bf 377f 69be 7843 49bf 5930 dcbe
00000150: b93f 75bf 29e3 543e 49b2 883d 261f 23be
00000160: 3edd b13e 8f6a 8fbe 38e4 e43e 2ed7 e6bd
00000170: c483 7dbe 49d2 27bd 80f9 26be 17cf 68bf
00000180: 600c 0a3f d0b5 ec3d db40 92bd d073 223d
00000190: bcbc 77bf 677a 8fbc a9cd 883e 07e6 67bd
000001a0: d831 0b3d f081 ad3d 2b0e 353e 799d 4fbe
000001b0: c7b1 ac3e 3cfb ce3e 4042 1f3c e03a 67be
000001c0: fba7 0abe 1f23 94be 2f2b 583e d232 e0be
000001d0: 73a3 2d3e 3cd6 8e3c fe05 013f c78d fabd
000001e0: 79a8 ba3e 4656 8f3e 70b1 e0be 0a34 af3e
000001f0: 26ca b4be 908c d33d bdc3 4fbf 20f4 f7bd
00000200: 3a98 70bb 7f7e 283e 3179 0fbf 313a 0f3e
00000210: ab32 cb3e c819 ad3e b80a 0b3e 6f06 67bd
00000220: 1e12 913f c8eb 833e ef5a 5fbf 5559 eabd
00000230: 9d22 413e 534a 9bbd 1541 a73e d9b7 06be
00000240: a67c 1f3f e9ff 223f 7762 c63e 0492 cabd
00000250: 5dd9 e4b9 5e3b 1b3e e20f 9ebd 6471 25be
00000260: 0953 1fbe 8fb3 19bf f5f2 0dbe ce2b 43be
00000270: bbcd db3e 14fc 133f 9697 403d 76e4 f3be
00000280: e7bb 813c f554 81bc 5ebc 773d e3f3 1cbe
00000290: 6948 81bf 350e f0be ade6 f5bd bca2 d33e
000002a0: 0b5d 863d a19c ecbd a255 28bf 4e48 e3bd
000002b0: bb2d ba3e d12a 823e 76d6 fe3d ef40 4a3e
000002c0: 1b14 603e badb 80bf 8c50 b43e e856 033d
000002d0: afcc 8d3e c6b3 453e 5a46 b83e dacd 5e3e
000002e0: 49b5 783e 1e0f cc3c 75ae 1fbf 9d9e 993e
000002f0: 6c4e 19be 6db5 cbbe 198a d33d 7409 cf3d
00000300: 8a4c 333f 5440 7c3e fc3d a73e bd09 34bf
00000310: f937 4abf 9851 c83e 4c23 0cbd 7bc7 81be
00000320: 5046 8a3e 3e67 f53d 62db 2f3e 60ab a3be
00000330: 2f45 0a3e c9db ae3e d292 8dbf c923 bbbe
00000340: 861b 3a3e 7d20 873e a962 a23e a18f ec3d
00000350: ca20 aebd b802 5fbf ab2b 61bf b185 22bf
00000360: 4ffc 24be 1271 3dbe 0ca4 dfbe 8116 153d
00000370: ca59 2ebf ecd6 f4be 7d5f cc3d 5bca 0dbf
00000380: 14e3 d63d 091f 253e 25ed 693d 5b54 1bbe
00000390: 78cb a93d 115b 9a3d 9cce 893e 3c16 c63e
000003a0: b9a8 c2be 9616 263d a14e 81be f409 373c
000003b0: 0ee6 5e3f 3221 98bf 211a f2bd d0ce cc3d
000003c0: 648f 6cbd 74e0 52bd 9fa4 80bf 207c 95be
000003d0: 1413 8ebe 82a3 dabe 714e 95bf 7c3a b6bd
000003e0: 5c7d 0f3e 4af6 78be 609f 7abe 700e f63d
000003f0: 4073 44be e662 58bf f614 cc3d 3d45 68be
-0.18387496 -0.19943833 -0.16015181 -0.82325816 0.06933243 -0.3110679 -0.84345853 -1.1164179
-0.8628908 0.30826288 -0.05955872 -0.9653345 -0.16081119 0.37490606 -0.34854317 0.20299701
0.20321323 0.2764004 -0.33815986 0.018865405 -0.001291485 -0.09912257 -0.07883596 -1.0473509
0.14686924 0.11398357 -1.4970783 0.021742169 -0.48936567 -0.04850114 -0.13407654 -0.46476927
0.32719266 -0.1626742 -0.49396843 0.14364699 -0.7617356 -0.30879116 -0.034215022 -0.21873814
-0.15341 0.15376246 -0.25378937 0.15988512 0.15758365 0.40215966 0.5246827 -1.1050613
0.0051087043 0.00083710457 -0.15126456 0.13921998 -0.24930526 -0.1426629 0.24200769 -0.018198436
-0.41576105 -1.2031177 -0.62962425 -0.19958033 0.14336893 0.6624342 0.16877703 0.04960126
-0.14238042 -0.21907641 -0.0071625523 -0.21766591 0.63705313 0.29429707 0.44896638 -0.49331528
-0.19093144 -0.66787714 0.531664 -0.20935585 0.26393145 0.31008047 -1.1125089 -0.15939067
-0.663849 -0.22802435 -0.78618574 -0.43005636 -0.9580036 0.2078978 0.0667463 -0.15929851
0.34739107 -0.28010985 0.44705367 -0.11271511 -0.24757296 -0.040972028 -0.16306114 -0.90940994
0.5392513 0.115581155 -0.071412764 0.03966123 -0.9677236 -0.01751442 0.26719406 -0.056615856
0.03398308 0.08472049 0.17681186 -0.20274915 0.33729383 0.40426052 0.009720385 -0.22581053
-0.13540642 -0.28933045 0.21110223 -0.43788773 0.16956882 0.01743614 0.5039977 -0.12234073
0.3645666 0.2799551 -0.43885374 0.3421939 -0.35310477 0.103295445 -0.8115805 -0.1210711
-0.0036711828 0.16454504 -0.560443 0.13987042 0.39687094 0.33808732 0.13578308 -0.05640262
1.1333654 0.25765824 -0.8724813 -0.1144282 0.1886086 -0.075825356 0.3266684 -0.1315607
0.62299573 0.6367174 0.38746998 -0.098911315 -0.00043649497 0.15159366 -0.07717873 -0.16156536
-0.15559019 -0.6003961 -0.13862212 -0.19059679 0.42930397 0.57806516 0.047019564 -0.4763524
0.01583667 -0.015787581 0.060482375 -0.1532741 -1.0100223 -0.4688584 -0.120068885 0.41335094
0.06560715 -0.11553312 -0.65755665 -0.110977754 0.36363015 0.2542329 0.12443249 0.19751333
0.2188267 -1.0067055 0.35217702 0.032065302 0.27695224 0.1930686 0.35991174 0.21758214
0.24287905 0.024909552 -0.62375575 0.30003825 -0.14971322 -0.39786854 0.103290744 0.10109225
0.70038664 0.24633914 0.32664478 -0.7032736 -0.7899166 0.3912475 -0.03421335 -0.25347504
0.2700677 0.119825825 0.17173532 -0.31966686 0.13502954 0.34152058 -1.1060431 -0.3655074
0.18174562 0.26391974 0.31715897 0.115508325 -0.08502348 -0.87113523 -0.8795726 -0.63485247
-0.16111873 -0.18500164 -0.43679845 0.036398415 -0.6810576 -0.47820222 0.099791504 -0.55386895
0.104925305 0.1612512 0.057110924 -0.15168898 0.08290762 0.07536901 0.26915443 0.38688838
-0.3801935 0.040548883 -0.25255302 0.011171807 0.87069786 -1.188513 -0.1182139 0.10000384
-0.057753935 -0.051483586 -1.0050238 -0.29196262 -0.2774893 -0.42702872 -1.1664563 -0.08897874
0.14012665 -0.24312702 -0.24474859 0.120144725 -0.1918459 -0.8452591 0.099649355 -0.22682662

linear_relu_stack.2.bias f4 [25]
00000000: 5711 09bf 5670 11bf 8c17 3abd f475 bcbd
00000010: 41c6 c7bd f466 debe f59e afbd 7642 603e
00000020: 6789 02bc f646 72be df4b 8b3e 7c5d 65bd
00000030: 6a6a 5cbd f62f a93e f8b3 bbbe 510a 473e
00000040: 3c85 0c3f 2b4f ac3e 7f0c 933f 7fff d0be
00000050: 1911 44be 3f97 58bf 64b3 ffbd d5d7 083f
00000060: 732b 7c3f
-0.53542084 -0.56812036 -0.045432612 -0.09202185 -0.09754611 -0.43437922 -0.085752405 0.21900353
-0.00796733 -0.23659882 0.27206323 -0.055997357 -0.05381242 0.33044404 -0.36660743 0.19437529
0.548908 0.3365415 1.1488189 -0.40819928 -0.19147147 -0.84605783 -0.12485388 0.53454334
0.985038

linear_relu_stack.4.weight f4 [10, 25]
00000000: ac3d aa3e b228 193e 34e5 873e 35ed d7be
00000010: 859d cb3d e49c 82be dd9f cdbe 28f1 08bf
00000020: 15a2 833e d669 a83d b14b a63d fd71 10bd
00000030: 542a b0be d99e bf3e 653d d33d 434e f7be
00000040: ff77 263c f882 083a d8c8 d9bd 4ea7 d7be
00000050: 826d dbbe 1935 31bf 0f26 13bf 96f6 06bf
00000060: 57b2 0b3f cf06 d5bf d4a4 0c3e 8c1b 51bf
00000070: 9336 0ebe 634f ba3e 4f23 2ebe b804 cf3e
00000080: 14c9 0ebd ba90 a3be f3b6 71be 7fe4 8ebe
00000090: d1d7 1e3e fa23 8b3e ac10 4fbe 9260 a13b
000000a0: cd79 59bf 1f9a 083f a3bd bcbe 30e9 07bf
000000b0: 42e6 d53d f114 6b3e 7a4d d23d 8544 b0be
000000c0: 3092 dabe 77c1 c23c d181 c3bd 1f89 eb3e
000000d0: 97b7 033e e6d3 96be bd8e c2be fd05 9fbd
000000e0: 6919 aebe d0a5 e23c 9681 8b3e 5167 aa3c
000000f0: 248f 23bd a819 bfbc 8d4c 453e 8580 02bf
00000100: 60e8 b93e 2d09 3bbf 0689 903e 1813 fdbe
00000110: 91eb 88be 214e c73e 6942 3c3e 24b0 c7be
00000120: 8216 48be 082a 14be 0156 d7bc 0cc1 e3bd
00000130: 5ced 3e3d 56fc 2cbe 9b67 543e 7d20 a8bb
00000140: 1eaf bbbe 143a 28bf 7d23 f0be 12ee 8e3e
00000150: 64ab 503d bd3a e73d f1e6 d73e 1c94 bcbd
00000160: 0bd6 ecbe cf4e a63d 0e9d 66be 1dc6 41be
00000170: 7ccd 17bf d93a 28bd a90b 553e 16aa eb3d
00000180: f9ee b43e eb2c 0ebf 06f8 9b3e f849 91bd
00000190: 3d7c 47bd 05a4 0cbf e625 66be 0316 2b3e
000001a0: 7e8d 52be e5c4 aebd 8900 083f adf5 583e
000001b0: ded6 e1bc 5915 b5be 22a9 3f3d 0ecc dabe
000001c0: b09e e8be 2cfd fabd 80da a43e d965 74bf
000001d0: 1bfd e43c 3938 ecbe 9355 803e 7985 f8be
000001e0: a280 50bf ece1 a5be 4dbc 18bf 01f3 e33e
000001f0: 91c7 48bf 4764 4ebe 1424 49ba 2028 563e
00000200: cc17 aebe 72b4 1ebe 4a56 9dbe 0ca5 8dbd
00000210: 53e4 bf3d ab60 2dbd 0d6d 303e 456a e83c
00000220: d56f c23e f66c 88bd 1394 e8bd c825 54be
00000230: 8290 a93e 635d c8be ee5c 073f 3f31 0a3e
00000240: 88cf f1be 5e3d eb3c d989 4f3e 5c77 53be
00000250: ed6e b03d 4659 a63d df3b 0f3e 8e4a 4ebb
00000260: 6361 6abe b3db 54bf c108 2ebe 9641 bebe
00000270: 69cf b8be dddc e23d d7a4 b63d f030 883e
00000280: 80d9 363f 80ef 9cbd 028c a83e 882f f43d
00000290: 2aba a8be f7c3 513e 2df6 053d efe0 41be
000002a0: 4b17 0e3e c107 8cbe 0caf 43be 1a92 f3be
000002b0: b6d3 41be d42e 3fbf 660d 903e bc8c 1fbd
000002c0: 3f7a 15bd 2e9d 133e 6a7f b33e 9a64 803e
000002d0: 9985 bd3c c98d 07be b5e5 e5be c861 1cbe
000002e0: 1bdb 04bf f1b8 f6bd 36f8 90be 25fd eb3e
000002f0: e0e1 48be 8981 153e b905 49bf 40ff 233e
00000300: e8e9 4c3e 062a edbc 0840 513e 1330 a53e
00000310: bb6b 8fbe 9f46 cb3a ba8e da3c 5922 c6bc
00000320: b7a6 a6be 075c f2be 21c9 6fbe ad7e 67be
00000330: c920 e73e 0725 533e 36c8 55be b791 b6be
00000340: 8481 ad3e 8413 08bc 9300 3c3d aca9 ba3e
00000350: db7a 59be b323 61be 10b3 53be 5f9b b2be
00000360: 2b60 9d3e d4f1 bd3d 1187 143f 043a 24be
00000370: 635f 563d 28e7 b0bd cb94 083f 879e 803e
00000380: d990 b83e cff8 d3bc 38e5 1dbd 1ce5 32be
00000390: fc9b d53e 1ef8 ff3d bd8c c7be 90c5 803e
000003a0: aca4 82bd 3a86 aabe 90e2 92bd ca43 15bf
000003b0: 7994 273e 05e2 88be 3431 943e 3178 113e
000003c0: 4ede 3fbd 5010 7a3c 2b59 e7be 1d8a b23e
000003d0: a336 25bf a82e 2cbd 43c0 92bd d3f6 37bf
000003e0: 7002 013e 5d74 e0bd
0.33250177 0.1495693 0.26542056 -0.42173162 0.09942154 -0.25510323 -0.40161029 -0.53492975
0.25709596 0.082233116 0.08119906 -0.035264958 -0.34407294 0.3742588 0.103144445 -0.48301896
0.010160445 0.0005207504 -0.10634011 -0.4211983 -0.42856985 -0.69221646 -0.5747995 -0.5272001
0.54569 -1.6642703 0.13734752 -0.8168266 -0.13888006 0.36388692 -0.17005657 0.40433288
-0.03485973 -0.31946355 -0.23604946 -0.27908704 0.15512015 0.27175885 -0.20221204 0.004924842
-0.8495148 0.5336017 -0.3686343 -0.5309019 0.10444309 0.22957207 0.10268684 -0.34427276
-0.42689657 0.023773892 -0.09546245 0.46003053 0.12863003 -0.2945854 -0.37999526 -0.07764814
-0.3400376 0.027666956 0.27247304 0.020801218 -0.03993143 -0.023327664 0.19267483 -0.50977355
0.363101 -0.73060876 0.2822954 -0.4942863 -0.26742223 0.38926795 0.18384708 -0.39001572
-0.19539836 -0.14469159 -0.026286127 -0.11120805 0.046613082 -0.16893134 0.20742647 -0.005130826
-0.3665704 -0.6571362 -0.46902075 0.27916008 0.0509447 0.112905 0.42168382 -0.09207937
-0.46257052 0.081205 -0.22520849 -0.1892323 -0.5929792 -0.041071746 0.20805229 0.11507051
0.35338572 -0.5553729 0.30462664 -0.070941865 -0.048702467 -0.54937774 -0.22475395 0.16707616
-0.20561787 -0.085336484 0.53125817 0.21187468 -0.027568277 -0.3536785 0.046792157 -0.42733806
-0.4543357 -0.1225532 0.32197952 -0.9546791 0.027952721 -0.46136644 0.25065288 -0.48539332
-0.8144628 -0.32398927 -0.59662324 0.44521335 -0.78429514 -0.2015544 -0.00076729176 0.20913744
-0.3400253 -0.15498522 -0.30729896 -0.06916246 0.09369721 -0.042328518 0.172291 0.028370986
0.37975946 -0.06661408 -0.11356368 -0.20717537 0.33118063 -0.39133748 0.52876174 0.13495348
-0.47228646 0.028715786 0.20267428 -0.20651 0.086149074 0.08122496 0.13987683 -0.0031477544
-0.22888713 -0.83147734 -0.16995527 -0.37159413 -0.3609574 0.110772826 0.089181595 0.26599836
0.7142563 -0.076628685 0.32919317 0.11923128 -0.32954532 0.20484911 0.032705475 -0.18933462
0.13876073 -0.27349666 -0.19109744 -0.47572404 -0.18928418 -0.7468083 0.28135222 -0.038952574
-0.036493536 0.14415428 0.35058147 0.25076753 0.023134993 -0.1323768 -0.44901815 -0.15271676
-0.5189683 -0.120469935 -0.2831437 0.4609157 -0.19617414 0.14600195 -0.7852436 0.16015339
0.20011103 -0.028950702 0.20434582 0.3226324 -0.2801188 0.0015508718 0.026679385 -0.0241863
-0.32549068 -0.47335836 -0.23416568 -0.22606917 0.451422 0.20619594 -0.20877156 -0.35658047
0.33887875 -0.008305434 0.045898985 0.36457574 -0.21238272 -0.21986274 -0.20673776 -0.34884164
0.30737433 0.09274641 0.58018595 -0.16037756 0.05233706 -0.086378396 0.5335204 0.25120947
0.3604801 -0.025875477 -0.03854868 -0.17470211 0.4172057 0.124984965 -0.38974562 0.25150728
-0.06379065 -0.33305532 -0.071721196 -0.5830656 0.16365232 -0.2673494 0.2894379 0.14206006
-0.046842866 0.015262678 -0.45185217 0.34870997 -0.64536494 -0.042036682 -0.07165577 -0.71861
0.12598586 -0.109596945

linear_relu_stack.4.bias f4 [10]
00000000: e279 c9be 76e0 5fbe 4283 47bc 38f9 27bf
00000010: d7f9 a43e c61f a03e 97c9 33be e3c4 d8be
00000020: ca79 843f ed2a e13d
-0.39350802 -0.21862969 -0.01217729 -0.6561465 0.32221863 0.3127424 -0.17557369 -0.42337713
1.0349667 0.109945156
