models/pytorch.pth (torch, 165768 bytes, 6 tensors)

linear_relu_stack.0.weight f4 [50, 784]
000000 f3 2e ae 3c f6 64 2b bd bc 1a ee 3c 14 c2 b1 bc
       0.021262622 -0.04184433 0.029065482 -0.021698989
000010 0a 2e 97 bd 64 88 d5 3c 14 73 96 bd 2a f3 8b bd
       -0.07381828 0.026066013 -0.07346168 -0.06833489
000020 58 93 71 bd 76 c1 12 3d 2c 08 eb bc f2 ee 2a 3d
       -0.05897841 0.03582903 -0.02869042 0.041731782
000030 10 3b c7 be cf 84 b3 be d1 40 d7 3e 74 f7 43 3e
       -0.3891225 -0.35062262 0.42041638 0.19137365
000040 58 4d 0f 3c c0 bf b3 bc 19 ed 9f bd 9e b1 38 3d
       0.0087464675 -0.02194202 -0.07808895 0.045091264
000050 8b be 87 3d f0 98 45 3c 14 d7 8f 3c 05 ef a6 3d
       0.0662814 0.012060389 0.017558612 0.08151058
000060 80 d7 04 3c 76 d4 61 bd 51 da a0 3d ac 28 5c bd
       0.00810802 -0.05513426 0.078541405 -0.053749725
000070 6d 55 9d 3d 60 a7 25 3c 60 d1 97 3b 2e 6f 67 3d
       0.07682309 0.010110706 0.0046331137 0.056502514
000080 36 46 7c 3d 36 5d 35 3d 40 fc 0c 3b 38 87 83 3d
       0.061590396 0.044278346 0.0021512657 0.06422275
000090 34 d6 d6 3e e4 bf 3a 3e d9 5b 16 3e 95 09 ab 3d
       0.419603 0.18237263 0.14683475 0.08351437
0000a0 88 51 86 be c0 89 41 3e 9a ad 35 3f 47 d7 44 3e
       -0.26234078 0.18900204 0.7096802 0.19222747
0000b0 72 ae f9 3e 1c 19 00 40 64 03 1a 3f bc 8e d9 be
       0.48765904 2.0015326 0.60161424 -0.4249171
0000c0 4f 84 fe be d9 39 d4 be 85 1d 57 be e8 2e 83 bd
       -0.49710318 -0.41450384 -0.21007355 -0.06405431
0000d0 80 11 46 3a ff 9d 13 bd 87 4e 81 3d db fc 97 3d
       0.0007555708 -0.03603935 0.06313806 0.07421275
0000e0 8d 6c 80 3d 6b ae 9c 3d 56 84 7e bd 22 78 d0 bc
       0.062707044 0.07650455 -0.062137924 -0.025447909
0000f0 69 fb 06 bd e3 3e e0 be 7e 41 c7 be 0c d9 dd 3e
       -0.032954607 -0.4379798 -0.38917154 0.43329656
000100 ce 3f fb 3e e5 ec c3 3e ab af e8 3e 04 98 00 3f
       0.49072117 0.38266674 0.45446524 0.5023196
000110 f9 b6 43 3f aa ce 42 3f f4 33 e6 3e 13 aa 1f be
       0.7645107 0.76096594 0.44961512 -0.15592222
000120 00 c5 a6 bd 4d 0b 65 3e b3 43 05 bf 87 7b a0 bf
       -0.081430435 0.22367592 -0.52056426 -1.2537698
000130 0a e2 b6 bf 86 a8 b6 be 29 c1 dc be e9 29 86 be
       -1.4287732 -0.35675448 -0.4311612 -0.2620385
000140 fb 06 86 3e 80 fb 8c 3e 81 67 ad 3d 81 43 a2 3d
       0.261772 0.2753563 0.084670074 0.079230316
000150 fe 9c 5d bd 14 73 a2 bd 70 b6 6c 3d 59 6b 8f 3d
       -0.054104798 -0.07932106 0.057791173 0.07002897
000160 ad 21 90 be e3 7a 6e 3d c5 68 00 3e 2a 33 20 3f
       -0.28150693 0.058222663 0.12539966 0.6257807
000170 7f d9 ee 3e 9b 6c 46 3f 7c 9d 64 3f 4f 7e 95 3e
       0.4665031 0.7750947 0.893028 0.29197928
000180 2c 25 21 3f 76 47 4f 3f b4 8b 31 3e 19 92 f2 bd
       0.62947345 0.80968416 0.17338449 -0.11844272
000190 f0 a8 54 be da f2 f6 3c 48 0b 6a be 51 8b 57 bf
       -0.2076757 0.030145098 -0.22855866 -0.84196955
0001a0 8e 12 07 bf 9f 96 8d bf 52 dc 11 bf 25 d3 b6 be
       -0.5276269 -1.1061591 -0.5697681 -0.35707965
0001b0 fe 22 cc 3c dc e9 a3 3e 70 5f 0b bc ee f2 27 bd
       0.02491903 0.32014358 -0.008506641 -0.04100316
0001c0 9a 2b 60 bd ff 25 ba bb e8 2a 81 3e b5 7b 18 3f
       -0.05472908 -0.005680799 0.25228047 0.5956376
0001d0 f1 a2 6d bc 63 e9 90 3e ea c2 9f be fc cc 2d bc
       -0.01450418 0.2830306 -0.31203395 -0.010607954
0001e0 9e ef 87 3d dd b7 10 bf 5b 5a 8c 3e 37 35 a6 be
       0.066375 -0.56530553 0.27412686 -0.32462475
0001f0 bd 19 e7 3d ce 66 9c 3e c8 4f 6d 3e 93 29 e7 3e
       0.11284206 0.30547184 0.23174965 0.45148906
000200 12 44 7f 3c 04 fd 00 3f 54 2f 79 3f 18 1c af 3e
       0.015580194 0.5038607 0.9733784 0.3420112
000210 6d 80 f9 3e 92 e7 c4 be 3a b4 63 bf 4a 0b 83 bf
       0.48730794 -0.38457924 -0.8894688 -1.023782
000220 31 c5 90 be b5 f2 77 be 30 31 59 3c c2 ae a3 bd
       -0.28275445 -0.24213679 0.013256356 -0.07992317
000230 a4 fc e3 3c 30 83 32 bd 8a 46 a7 3e b2 02 0c 3f
       0.02783043 -0.04358214 0.32671005 0.5469161
000240 9a 98 a4 ba 27 25 25 bf 1d fa 1a be 68 97 e3 bc
       -0.0012557686 -0.64509815 -0.15134473 -0.027782157
000250 3c 50 0d bf a8 5a 30 bd 2e 3d 0d 3f 7c 58 ae 3e
       -0.5520055 -0.043055207 0.5517148 0.34051883
000260 7e a3 72 3e cb 64 c4 3d 00 ec c1 3d cf cf 8a 3e
       0.2369518 0.09589537 0.094688416 0.2711167
000270 32 14 ec bc 09 75 0b be 9d af 60 3d 25 f1 f3 3c
       -0.028818224 -0.13618864 0.054854978 0.029778073
000280 2a 6f bb 3e da 5a 39 be 3e de 84 bf 69 88 ae bf
       0.3660825 -0.18101063 -1.0380323 -1.3635379
000290 25 14 34 bf 52 fb 29 bf 82 6c 2b 3d 5c ff d0 bc
       -0.7034324 -0.6639911 0.041851528 -0.02551239
0002a0 ca 6a 6c 3d f2 27 75 3f 76 63 00 3f c9 a4 57 3e
       0.05771903 0.95764077 0.50151765 0.21058954
0002b0 a7 f3 ee 3d d4 c8 9e 3e 2a b4 0f 3f 30 2f 15 3f
       0.11667567 0.31012595 0.56134284 0.5827513
0002c0 07 1a c4 3d f1 20 f3 3e 7e 82 57 3e 24 2c 1c 3f
       0.09575277 0.4748607 0.21045873 0.61004853
0002d0 28 ca 0f 3f 65 76 58 3f 9a 10 42 3f 7b bd 8d 3e
       0.5616784 0.84555656 0.7580658 0.27683625
0002e0 8e 59 6e bd 9b a9 82 be 1b c9 af 3b af 1d 86 3d
       -0.058190875 -0.25520024 0.00536455 0.065486304
0002f0 78 38 76 be 76 b1 9f be 49 32 eb be 9d f2 08 bf
       -0.24044979 -0.3119008 -0.45936802 -0.534952
000300 48 62 0d bf 7d 7b 37 bf 2e e4 f1 bd 04 35 f3 bd
       -0.5522809 -0.71672803 -0.118111 -0.11875346
000310 7e 62 07 bd 0c ee aa 3f 6d da 20 3f 1a 15 8d be
       -0.033052914 1.3353896 0.6283329 -0.27555162
000320 9a 85 9d 3f 2a 4b e3 3e 78 0b 22 3f e9 b1 24 3f
       1.2306397 0.44393283 0.6329875 0.6433397
000330 a7 bc c5 3e 0b 15 90 3e 8c 8b 17 bb 21 27 b0 3e
       0.38620493 0.28141055 -0.0023123948 0.34404853
000340 42 65 21 3f 31 9b 10 3f 4d 2b 3b 3f db 5f 37 3e
       0.6304513 0.56486803 0.73112947 0.1790766
000350 17 83 e9 3d 0c fb 02 3e 6c d9 7d 3c a2 76 be 3e
       0.114019565 0.1279108 0.015493732 0.37199885
000360 c7 b9 7e be 26 28 06 bf fd 41 c0 be a4 fc 95 be
       -0.24875556 -0.5240501 -0.37550345 -0.29294312
000370 71 45 a7 bf 63 22 e2 bf ef c2 2d be 88 74 d2 3c
       -1.3068067 -1.7666744 -0.16968893 0.025690332
000380 34 13 40 bd 7c 48 62 3e 75 3b 54 3f bf 6d bb 3e
       -0.046893314 0.22097963 0.82903224 0.36607167
000390 0f 66 4a 3f e3 53 b0 be d4 b4 ef be cf ec 14 3f
       0.7906198 -0.34439 -0.46817648 0.5817384
0003a0 2a 5e 39 3e 70 9e d5 3d 5e 7f 8f 3e c6 7e 8a 3e
       0.18102327 0.1043061 0.2802686 0.27049845
0003b0 ed 20 68 be 00 15 55 be ff 15 f9 3c 0b ca 80 3e
       -0.2266881 -0.20808792 0.030405996 0.25154147
0003c0 86 c2 b1 3e 04 4e a5 3e 84 a5 98 3e 70 69 17 3e
       0.34718722 0.32286084 0.29813778 0.14786315
0003d0 16 a6 8d bc 67 a0 51 be 3d 03 06 bf 02 89 9c bd
       -0.01729111 -0.20471345 -0.5234869 -0.0764332
0003e0 9e d1 47 bf 65 15 15 bf f9 f4 8c 3f 5a d2 2d 3f
       -0.78054225 -0.5823577 1.101226 0.67899096
0003f0 ea 3f f8 bc f6 58 50 bb 95 df 83 3f 0c 66 a6 3e
       -0.030303914 -0.0031791306 1.0302607 0.3249973

linear_relu_stack.0.bias f4 [50]
000000 85 c8 16 bf 0a f6 9c be 2d d6 aa be dc 72 86 3e
       -0.5889972 -0.30656463 -0.33366528 0.26259506
000010 d8 61 b0 be 81 31 6c 3e 1d 4f ce 3e 91 d4 57 be
       -0.3444965 0.23065759 0.40294734 -0.21077181
000020 8a 3e 4e 3e 01 e4 f0 be ca 3e f9 be 61 25 1f bf
       0.20141044 -0.47048953 -0.48680717 -0.6216641
000030 f3 66 de 3c 29 51 82 3f ea 7a 96 be 35 de ad 3d
       0.0271487 1.0181018 -0.2939065 0.08489648
000040 c3 08 1a bf b0 dc dc be 92 fa 68 3e 7f 1d b9 3e
       -0.6016962 -0.4313712 0.22751835 0.36155316
000050 de bc 84 bd 00 04 80 3f 42 92 3a be e2 d8 34 bd
       -0.06481336 1.0001221 -0.18219855 -0.044152148
000060 86 68 21 be f9 e1 94 be 76 0b 14 3e 03 16 1c bf
       -0.15762529 -0.29078653 0.14457497 -0.6097109
000070 d8 df e8 3d 8f 15 a2 bd 00 cd 20 3e 3e 83 a9 bd
       0.1137082 -0.07914268 0.15703201 -0.082769856
000080 1c 48 b2 bd 73 31 e3 3d af bd 37 bf 0e 2e 29 bd
       -0.0870516 0.11093416 -0.7177381 -0.041303687
000090 c0 0e 8a be fa ab ae bd 56 2b 8b bd 2c 7b 8d 3e
       -0.26964378 -0.08528896 -0.06795375 0.27633035
0000a0 cb bc 77 bd 17 0b c6 bd 54 1c 2c be db eb db be
       -0.06048278 -0.09670084 -0.16807681 -0.4295338
0000b0 ec ec 5b be d4 8f 28 3f c6 8f a4 bd 42 c7 a5 bd
       -0.21477097 0.65844464 -0.08035235 -0.08094646
0000c0 3c 9e ac 3e 09 fe 8d bd
       0.33714473 -0.06933219

linear_relu_stack.2.weight f4 [25, 50]
000000 6d 8e 2c bf 17 97 a0 3c 08 f7 8c be ad 57 a0 bf
       -0.67404824 0.019603295 -0.2753222 -1.2526757
000010 40 ee 3c 3e 4d 89 42 bf 60 13 7b be e2 14 4d 3e
       0.1845026 -0.75990754 -0.2451911 0.20027497
000020 84 ea b7 3e 78 79 00 bf 75 31 8e 3e d3 a9 36 3d
       0.3592111 -0.50185347 0.27772108 0.04459555
000030 7b 88 c7 3e 4e 86 87 3e 14 6c 9a 3e 00 73 44 bd
       0.38971314 0.26469654 0.30160582 -0.047961235
000040 21 03 a1 3e a2 79 5d bf b8 ed 13 bf db 42 3a bf
       0.314477 -0.8651372 -0.57784605 -0.72758263
000050 a1 86 1e 3d 68 67 97 be 61 44 c2 3e c4 bd 0a be
       0.03870261 -0.2957108 0.37942794 -0.13548952
000060 a8 f4 c9 be 9b 06 0f bf 13 40 37 bf c1 01 93 bf
       -0.3944447 -0.55869454 -0.71582144 -1.148491
000070 f5 18 57 3e 87 0e f2 3d b5 e2 f8 3d ce d6 03 3d
       0.21005614 0.11819177 0.12152616 0.032187276
000080 72 0c 14 be 11 a6 0e 3e 08 a3 4d be d8 85 07 bf
       -0.14457873 0.13930537 -0.20081723 -0.52938604
000090 06 ef 06 be 76 35 f3 3d f3 2d 8b 3e 58 95 03 bd
       -0.13177118 0.11875431 0.27183494 -0.032124847
0000a0 da 5b 3e be 9d c2 2d 3f a5 38 09 3c ce 9f 1d 3e
       -0.18589726 0.6787508 0.0083753215 0.15392992
0000b0 d3 ea 32 bf 65 a7 9f 3e 51 42 e5 3e 7c f9 91 3e
       -0.69889563 0.311824 0.44777158 0.28510654
0000c0 39 05 00 3e 25 5b 4b 3e bc 69 78 3f 79 b5 fa 3d
       0.12501992 0.19858988 0.9703634 0.122416444
0000d0 27 6f 3b be 91 ff 24 3f 19 28 e5 3e 45 9b c6 3e
       -0.1830412 0.64452463 0.44757155 0.38790336
0000e0 2b 93 cb 3e 0f ce c3 be f3 e7 01 bf 8c 53 1f 3e
       0.39760718 -0.38243148 -0.5074455 0.15559214
0000f0 01 89 00 bf 2c 78 28 3f b2 48 7d bf 47 61 aa 3e
       -0.5020905 0.6580837 -0.9893905 0.33277342
000100 4a f1 8d bd c1 ae aa 3d 3a f4 9c 3e 5f 80 92 3e
       -0.06930788 0.08334113 0.3065508 0.28613564
000110 74 36 58 bc 82 e9 93 3d 8b 1c 86 3c 51 d3 be be
       -0.013196576 0.072222725 0.016371032 -0.37270597
000120 20 c4 25 bc 8b 39 05 3d 2b 64 56 3d 48 c6 d5 be
       -0.010117561 0.03252558 0.05234162 -0.4175284
000130 21 27 01 3e be ab 01 3f 05 69 8d 3d 17 dc 8f 3e
       0.12612583 0.5065268 0.069047965 0.28097603
000140 50 bb 3c 3f 1d e1 c6 bd 52 a6 0d be 28 6c 00 bf
       0.73723316 -0.09710906 -0.13832977 -0.50165033
000150 1d eb 05 be e3 bd a7 3e 50 48 c9 3e 03 f1 83 3c
       -0.1307797 0.3276206 0.39312983 0.016106134
000160 9b 60 44 3e b9 24 a3 bd dd 49 85 bd 4d f8 f3 be
       0.19177477 -0.07965989 -0.06508229 -0.47650376
000170 7b 0c b0 3e e0 3f 47 3e 9a 45 07 bf 34 32 6c be
       0.34384522 0.1945796 -0.5284058 -0.23066026
000180 91 e4 00 bf 4a 54 18 be 36 56 ad bf 5b 8f 56 be
       -0.50348765 -0.14875904 -1.3541934 -0.20953123
000190 58 be ec 3e 12 b6 32 bf a3 98 9c 3e 38 6a 3b bd
       0.4623897 -0.6980907 0.30585203 -0.045755595
0001a0 7d 7c 83 3e 82 f8 1e be 32 7d 84 be 54 ef a8 3d
       0.25680915 -0.15524486 -0.25876766 0.08248773
0001b0 6d fa 76 3d ec 91 b7 bd b4 b8 bc bd f9 66 18 3e
       0.06029742 -0.08963379 -0.09214917 0.14883031
0001c0 2f 4d a8 3e 43 ab 3f 3f a8 f9 93 3e 14 4b 1e 3e
       0.32871386 0.748707 0.2890141 0.15458328
0001d0 76 e7 c2 be cc 7d 03 3e 46 7f d8 3e 74 b4 22 bc
       -0.38067216 0.12840956 0.42284602 -0.009930719
0001e0 80 01 95 3b e5 e8 d5 3e 43 4a 02 3f c3 b5 80 be
       0.004547298 0.41779247 0.50894564 -0.25138673
0001f0 2f a8 d4 be 14 db 39 bf e7 26 04 bf ec 21 ba 3b
       -0.41534564 -0.7259991 -0.5162186 0.0056803133
000200 f5 de 77 be fa 41 96 be 17 ab 2a 3e 30 34 83 3e
       -0.24206145 -0.2934721 0.16666828 0.25625753
000210 09 f2 38 be d1 7b 8e 3f d4 cd 56 bd 59 94 ee 3e
       -0.18061079 1.1131536 -0.052442387 0.46597555
000220 4c 37 84 3e 28 e6 5f bc ef 50 06 be 20 54 dc 3d
       0.25823438 -0.013665713 -0.13116811 0.10758233
000230 bd 53 a2 3d 88 23 70 bf 2c 05 05 bf e8 f2 19 be
       0.07926128 -0.93804216 -0.51961017 -0.15034068
000240 e5 4d b6 be 5b 03 cb 3e df 9b 08 bf d7 b9 ef 3c
       -0.35606304 0.39650998 -0.5336284 0.02926342
000250 31 00 b8 be 56 a8 87 bc 49 0b d4 3d 26 9c d9 be
       -0.35937646 -0.016559761 0.10353715 -0.42501944
000260 72 89 8e be d0 e4 90 bf 60 d9 d5 be 7e 8d aa bd
       -0.27839237 -1.1319828 -0.41767406 -0.08327769
000270 ab d3 94 bc 7d b1 1b 3f b7 2f a0 bf 85 79 c8 be
       -0.018167337 0.608177 -1.2514561 -0.39155212
000280 c3 b9 1d bf 94 3d b4 3d 39 d9 14 bf 89 5c c0 3e
       -0.61611575 0.088008076 -0.58143955 0.375706
000290 b2 4c c7 bd 3b 8d d1 3e 89 57 73 bf 0b 2f 7b be
       -0.09731425 0.40928063 -0.95055443 -0.24529664
0002a0 e6 f3 1c 3d 5d de 81 be 06 46 25 3d ed 9f fd bd
       0.038318537 -0.25364962 0.040349983 -0.12384019
0002b0 04 26 77 bf 7a 2e 27 be b4 5a 3f 3d 7a e7 98 be
       -0.9654238 -0.16326323 0.04671736 -0.29864103
0002c0 64 06 43 be 30 ad e1 be dd 5d 5f be 19 01 ab be
       -0.19045407 -0.44077444 -0.2181315 -0.33399275
0002d0 da dd 0e bf 25 fa d0 bd 1f a0 25 bd bc f2 fd be
       -0.5580727 -0.10203961 -0.040435906 -0.49599254
0002e0 d0 74 03 bf ca 4e 81 bf e8 d9 24 bf ef 8d c2 3d
       -0.51350117 -1.010217 -0.64395 0.09499728
0002f0 7b fd 61 3e 53 af 77 bf 32 50 80 3c 2b 16 1c be
       0.22069351 -0.967519 0.01566324 -0.15242831
000300 5d 56 3b 3f bf ce 3b bf ab b6 18 bf 17 c8 77 bf
       0.73178655 -0.73362345 -0.5965373 -0.9678969
000310 0a e1 0a bf 89 76 16 3d a2 74 00 bf 76 13 04 be
       -0.5424963 0.036734138 -0.5017797 -0.12898049
000320 45 35 60 3e a1 79 cd 3e 88 9e a9 3d 0f f7 0c bf
       0.2189532 0.40131858 0.082821906 -0.5506448
000330 a2 3d 97 bd e7 6d ad 3e aa ee 9a bf dc bd dd be
       -0.073848024 0.3387291 -1.2104084 -0.43308914
000340 ea ff c5 3e ec 6a 19 3e 96 2c f6 3d a5 8f 00 bf
       0.3867181 0.14982194 0.12020223 -0.50219184
000350 01 1b 88 bf 70 bf 03 bf 71 39 f1 be 6f e0 1b 3f
       -1.0633241 -0.51463985 -0.47114137 0.60889333
000360 04 e9 07 3f 22 4c 4c be 73 a3 a2 bf b3 38 b0 3e
       0.5308993 -0.19950917 -1.2706131 0.34418258
000370 58 0f 67 3d e0 43 6c bf b5 09 d8 3d 5c b4 83 be
       0.056411117 -0.9229107 0.105487265 -0.2572354
000380 af ee 5a 3e e3 c3 2e be 78 a6 e6 3a cc 2a 1f be
       0.21380113 -0.17066912 0.0017597219 -0.1554367
000390 05 fd 7a be 69 ff 95 3d 47 22 04 bf 7a 14 86 be
       -0.24510582 0.07324106 -0.51614803 -0.26187497
0003a0 61 36 52 be 2c 8f 86 bf 98 de 87 bd ac b7 09 3e
       -0.20528556 -1.0512443 -0.06634253 0.13448972
0003b0 6f d7 e3 3e e5 6d a8 3d f4 84 09 3e d4 e1 d3 3d
       0.445003 0.08224086 0.13429624 0.10345808
0003c0 3c e8 7e 3e 96 24 72 3d 05 88 ea be 6e 0e 1d bf
       0.24893278 0.059116922 -0.458069 -0.6135014
0003d0 45 eb d4 3e 4d fc 6d 3e ad 6b a1 bc ab da 34 be
       0.41585746 0.23240776 -0.019704664 -0.1766154
0003e0 9d 47 e1 3e b6 58 4d 3d 31 49 60 be 2f c5 0d 3e
       0.4399995 0.05013343 -0.2190292 0.13844751
0003f0 73 bb f1 bd e8 f7 f8 3e a3 15 f9 be c2 ca 38 be
       -0.11803331 0.48626637 -0.4864932 -0.18046096

linear_relu_stack.2.bias f4 [25]
000000 47 c3 65 3f 49 cb ec be 38 56 e6 3c 52 14 69 be
       0.89751095 -0.46248844 0.028117284 -0.22761658
000010 95 b4 18 3f 51 1d ae 3e bf b3 f4 be 57 94 7f be
       0.59650546 0.34006742 -0.47793385 -0.24958931
000020 ec 58 2c bd d2 7a b9 bc e5 28 da 3d 3c 20 7a be
       -0.04207699 -0.022641573 0.10652331 -0.24426359
000030 de 4a 63 bc bb 7d dc bd 0a 22 3e 3c 84 08 4b bf
       -0.01387283 -0.10766169 0.011604795 -0.7930987
000040 69 9e 42 be 7b 49 cd 3e a8 f6 fc 3e 08 83 ea 3d
       -0.19005741 0.40095124 0.49406934 0.114507735
000050 84 fa 68 bd 52 19 7b 3e 0d 5e 76 3c 8e 1f 5c 3e
       -0.056879535 0.24521378 0.015037072 0.21496412
000060 64 f0 0b be
       -0.1366592

linear_relu_stack.4.weight f4 [10, 25]
000000 f5 ac a8 be de 85 00 be 11 d5 44 be 7b 6c 01 3f
       -0.32944456 -0.12551066 -0.19221903 0.50556153
000010 80 3a 19 be 9c db 15 3d e1 2c c8 be ce 45 85 bc
       -0.14963722 0.03658639 -0.3909674 -0.016268637
000020 7d df 81 be ce 49 1e 3e 1f 40 05 bd 23 ea 42 3e
       -0.2536582 0.15457842 -0.032531854 0.19034629
000030 77 4d cb be 2f 51 5b be 82 67 0d be 13 64 d1 be
       -0.39707538 -0.21417688 -0.13809016 -0.40896663
000040 27 b2 2c 3e 4e c6 15 bf b4 b4 3a 3e 34 7d 4c bd
       0.16864835 -0.58505714 0.18232995 -0.04992409
000050 fc bb 04 3e 5d 62 12 bf db e2 ec 3e 0a 34 dd 3e
       0.12962335 -0.5718134 0.46266827 0.43203765
000060 bb d3 a0 bd a6 62 c9 be e0 ca 94 be bb 97 58 be
       -0.078528844 -0.39333075 -0.2906103 -0.2115163
000070 3c e9 30 bf 10 33 70 bd 4c 83 16 be 55 f6 4f 3e
       -0.6910589 -0.058642447 -0.14698523 0.20308812
000080 63 de 4f bf d6 36 f3 3c 7f 36 06 3f 1f b6 45 3e
       -0.8119871 0.029689234 0.52426904 0.19307755
000090 18 cb d5 be fa b5 87 3e 5e 4d aa bd 0e aa 7a be
       -0.4175651 0.26506025 -0.08315538 -0.24478933
0000a0 54 35 75 3e 49 59 b0 bd e4 7a fb 3d 05 d2 74 bd
       0.23946124 -0.0861078 0.12279299 -0.059770603
0000b0 be b9 6d 3e a3 d4 9d be 88 34 73 bf 6a 37 e9 be
       0.23215386 -0.3082629 -0.9500203 -0.4555009
0000c0 a3 23 96 be f7 4e 27 be e7 ab ae be a4 ad f3 3e
       -0.29324064 -0.16338716 -0.34115526 0.47593415
0000d0 eb e3 ec 3d ef c1 dc bc 37 2c cd be 5a b4 7a be
       0.115669094 -0.026947943 -0.40072796 -0.24482861
0000e0 37 28 b6 be c3 c7 a4 be 38 3d a5 be 9e 9c 9e 3e
       -0.35577556 -0.32183656 -0.3227327 0.30978864
0000f0 42 39 8b 3e ac 54 16 bf b7 21 0d 3e 91 05 d3 3e
       0.27192122 -0.5872295 0.13782392 0.41215184
000100 3d e7 e2 3e a0 4a 35 be 7e 7b 03 be 5a f0 13 bf
       0.44317046 -0.17704248 -0.12840077 -0.5778862
000110 8e ad 99 bd 32 7b 98 3e 2d c3 eb bd f7 09 3a be
       -0.07503806 0.2978149 -0.11511836 -0.18167864
000120 a7 d3 92 be f8 56 84 3e 98 66 ec be 04 65 85 be
       -0.28677103 0.25847602 -0.46172023 -0.2605363
000130 23 9c 79 3e 99 4c fc 3d 69 8f 49 be ca 9f f0 3d
       0.24375968 0.12319297 -0.19683613 0.11749227
000140 3b b9 f0 bd 93 b6 aa 3e 53 9d b3 3e 44 46 2a bd
       -0.1175408 0.33342418 0.35080966 -0.041570917
000150 29 5d b1 be a1 3e a3 3e 33 f5 03 be d0 3d d3 be
       -0.34641388 0.3188372 -0.12886505 -0.41258097
000160 8d e7 1a be 4f 43 76 3e 4c d1 86 3e bb 1e 08 be
       -0.15127392 0.24049114 0.26331556 -0.13292973
000170 78 ab 72 be 41 bd 34 bd 19 e5 29 be 5e ad 26 3d
       -0.23698223 -0.0441258 -0.165913 0.04069268
000180 51 f1 0e bf f3 fd 8f be 05 ec eb 3e d0 c4 f1 bd
       -0.5583697 -0.28123435 0.46078506 -0.11805117
000190 b4 bf 2a 3e 54 aa 0e be 2d 1b be be af 3c b7 be
       0.16674691 -0.13932163 -0.37130108 -0.35788485
0001a0 57 51 4d be 21 71 fc be 81 3c 36 bd 3f 04 3b bf
       -0.2005056 -0.4930506 -0.044491295 -0.73053354
0001b0 ad 53 21 3d 75 26 1e be 8f 28 2a be b5 89 72 bc
       0.03938644 -0.15444358 -0.16617034 -0.01480334
0001c0 02 c3 c9 3d b4 23 31 3e cf 1f 7a 3e 72 2c 8e bd
       0.09851648 0.17298776 0.24426197 -0.06942071
0001d0 8a b2 8b 3e 90 7e 3c 3e be 55 74 3e d1 d5 d8 3e
       0.27284652 0.18407655 0.23860833 0.4235063
0001e0 8e 6f 66 3d aa 42 d2 3e 03 4b 8d be 4f c6 33 bf
       0.05625873 0.41066486 -0.27596292 -0.7022447
0001f0 55 4c e7 be 53 2d e5 3c f9 68 1d be e2 a9 56 3e
       -0.45175424 0.027975714 -0.15372075 0.20963243
000200 6f c8 d5 be 6b 0c 6c be 0c 32 ef 3e aa 91 9e 3e
       -0.4175448 -0.23051612 0.4671787 0.30970508
000210 e9 86 b5 3d 8a 5d 65 be 4d d5 6c bd 77 28 f0 bd
       0.08863623 -0.22398964 -0.057820607 -0.11726468
000220 03 88 8e 3d 5d 6c d7 3e aa 8d 51 3e 30 07 99 be
       0.06959536 0.42074862 0.20464197 -0.29888296
000230 af 9e 43 be f0 e3 bb 3b 91 68 47 3d be 4c f9 bb
       -0.19103502 0.0057339594 0.048683707 -0.0076080253
000240 9b 8f be be d9 0d 75 3e 1c ba 9a be 6f c5 a7 be
       -0.37218937 0.23931064 -0.30220115 -0.32767817
000250 94 e8 b0 3e 0f 3d 50 bd 77 62 1e be 55 27 a3 be
       0.34552443 -0.05083948 -0.15467249 -0.31865945
000260 bd b8 44 3e 0d 1c 92 3e 17 31 9e bf c8 9f 6a 3e
       0.19211097 0.28537026 -1.2358731 0.22912514
000270 76 9f 82 bf 6b 4c 33 bf 19 f5 db 3d 44 ff a5 be
       -1.0204914 -0.7003848 0.10740108 -0.32421315
000280 13 12 ca 3c 0c 17 2a be fe 9f 77 3e 82 4a 09 3f
       0.024666822 -0.16610354 0.24182126 0.53629315
000290 6e 37 2e bf ff 51 3e be f8 87 cb be a4 eb 92 3e
       -0.6805333 -0.18585967 -0.39752173 0.28695405
0002a0 cd 90 0b bf 2c ca 60 3e db 61 15 bf d5 a6 57 bd
       -0.54517823 0.21952122 -0.5835244 -0.052649338
0002b0 30 d0 83 3e 2d dd 24 bd b4 47 32 be e5 48 d2 be
       0.25744772 -0.040249992 -0.17410165 -0.4107124
0002c0 1e 89 8b 3e 6a 9f c5 3e 55 37 04 bf bc 42 8f 3c
       0.2725305 0.38598186 -0.5164693 0.017487876
0002d0 91 bb 74 be ac fd 9a bd 79 7e 2f bf 0f f8 8e 3e
       -0.23899676 -0.07567915 -0.68552357 0.2792363
0002e0 35 2a 95 3e 09 b5 82 be a7 e9 69 be 06 e8 11 bf
       0.29133764 -0.25528744 -0.22843038 -0.56994665
0002f0 10 f0 72 be 66 8d 1e 3e 59 53 ad 3e b4 0e b3 bd
       -0.23724389 0.15483627 0.33852652 -0.08743039
000300 3b b6 df be 65 97 7c 3e c0 16 f7 bd 22 ff ca 3e
       -0.43693718 0.24667127 -0.12064886 0.39647776
000310 16 fa 54 be b0 f6 69 bf 34 22 69 bd 83 22 ba be
       -0.20798525 -0.9139204 -0.056917384 -0.36354455
000320 87 ae aa 3e 8c 28 b6 be 29 fc 59 3e de 91 a2 be
       0.3333628 -0.3557781 0.21287598 -0.31751913
000330 74 44 34 3e 38 5b ae bc bd ec b8 be 4a a5 b7 bd
       0.17604238 -0.02128373 -0.36118117 -0.08967073
000340 5f 1b d1 be 98 e6 bf 3d 04 17 bf 3e 3c 07 a3 be
       -0.40841195 0.09370154 0.37322247 -0.31841457
000350 9a 85 9a be 42 a1 00 3e 78 1f 3c bf 05 6a 25 be
       -0.30180055 0.12561515 -0.7348552 -0.16153724
000360 3a cd e6 3d 20 40 89 bd 9e 9d 5c bd c0 2b c7 3d
       0.112696126 -0.06701684 -0.053861253 0.097251415
000370 eb 64 bc be 63 35 b0 bd bb 56 b6 be ee ca 80 3e
       -0.36795744 -0.08603933 -0.35613045 0.25154823
000380 a7 09 68 3e dc 90 b1 bb 8a 99 a3 be 6f 38 aa be
       0.22659932 -0.00541888 -0.31953079 -0.3324618
000390 3b 4a d8 bd 90 8a e7 3e b7 b1 82 3d 52 68 14 3e
       -0.10561033 0.45222902 0.06381553 0.1449292
0003a0 70 9a 1a bd f4 21 a8 3e c3 37 81 be 6f 69 48 be
       -0.03774494 0.32838404 -0.25237855 -0.1957147
0003b0 0c 9b 7d be 74 8e 32 bf f0 f6 8c 3e f1 60 37 3e
       -0.24766177 -0.69748616 0.27532148 0.17908074
0003c0 ba 1c c3 be 1b 0a 25 bd c6 2b a5 bd 03 99 c5 3e
       -0.38107854 -0.04029284 -0.0806499 0.385933
0003d0 08 06 b9 be 71 77 48 3e 9c b3 b6 3e 04 de 6a be
       -0.36137414 0.19576813 0.35683906 -0.22936255
0003e0 83 e9 92 3d 9b d8 16 3f
       0.07173445 0.58924264

linear_relu_stack.4.bias f4 [10]
000000 e3 dc 0c bd 7f eb 2c bf 9d 35 c4 be cb 78 1d bd
       -0.03439034 -0.6754684 -0.38322154 -0.038445275
000010 4d 00 81 bd 1d 8b ff 3e 14 e3 d5 be 27 72 98 be
       -0.062988855 0.49910823 -0.4177481 -0.2977459
000020 12 47 4f 3f cb cb 1d 3f
       0.8096782 0.6163909
